models/neuroplytorch/MSELoss_basic_audio/perception_model.pt (torch, 109191 bytes, 10 tensors)

net.0.weight f4 [100, 128]
0	0x3d4afb6a	0.049556173
1	0x3e831631	0.25602868
2	0x3d0f04db	0.03491674
3	0x3ed19703	0.40935525
4	0x3d52b511	0.05144221
5	0xbd966924	-0.07344273
6	0xbe0d3d51	-0.13792922
7	0x3e1e9565	0.15486677
8	0x3e04c143	0.12964348
9	0xbddf7a86	-0.10912041
10	0xbde44fa7	-0.11148005
11	0x3eddf2cd	0.43349305
12	0x3e3ab3e4	0.18232685
13	0x3e1eafde	0.15496776
14	0xbf02ffe3	-0.511717
15	0x3e5c8373	0.21534519
16	0xbd3864a0	-0.04501784
17	0xbd9f1d23	-0.07769229
18	0xbe921cf5	-0.28537717
19	0xbe76ab43	-0.24088769
20	0xbf055ff3	-0.5209953
21	0x3e57bc11	0.21067835
22	0xbe702e6b	-0.23455207
23	0x3cda7975	0.026669243
24	0xbe197b9f	-0.14988564
25	0xbe273f5b	-0.16332762
26	0xbe308497	-0.17238079
27	0xbe2ff17c	-0.17181963
28	0x3d8769c0	0.06611967
29	0xbcb6268a	-0.022235174
30	0x3cb7a5fd	0.022418017
31	0xbcb3d3ee	-0.021951642
32	0x3dfb5a89	0.122731276
33	0xbe2ae10d	-0.16687413
34	0x3e2d4181	0.16919519
35	0x3e5e2a3a	0.21695796
36	0xbe47cdbf	-0.1951208
37	0x3dfeb59e	0.124369845
38	0x3e8b5f72	0.27221256
39	0xbe0f2753	-0.13979845
40	0xbdf6fb3e	-0.120596394
41	0xbda31687	-0.07963281
42	0x3ee7405a	0.45166284
43	0x3c8ff9d5	0.017575184
44	0x3d048c77	0.03236052
45	0x3e16874b	0.14700048
46	0xbe9c8370	-0.3056903
47	0x3dd499e3	0.10380914
48	0xbcb844b1	-0.022493692
49	0x3d0e781d	0.034782518
50	0xbe0c2549	-0.13686098
51	0x3c5d8384	0.013520125
52	0x3d04c6d1	0.03241617
53	0x3ea081ad	0.31348935
54	0xbe955ad8	-0.2917087
55	0x3e8d21a0	0.27564716
56	0xbe346ae6	-0.17618904
57	0xbcb233ba	-0.02175318
58	0x3e1ee163	0.15515666
59	0xbe31f534	-0.17378694
60	0x3e8d9537	0.27652904
61	0xbe0fff2b	-0.14062183
62	0x3ec184ed	0.37796727
63	0x3d600f42	0.05470205
64	0xbccc010b	-0.024902841
65	0xbdf4f139	-0.11960072
66	0xbc935a95	-0.017987529
67	0xbe9588c2	-0.292059
68	0xbd91dca4	-0.07122162
69	0x3da57050	0.080780625
70	0xbe46885f	-0.19387959
71	0xbd042feb	-0.03227226
72	0xbde59e74	-0.11211863
73	0x3deabf2d	0.11462245
74	0x3e1831ff	0.14862822
75	0x3db7ce8c	0.089749426
76	0xbe7e3136	-0.2482346
77	0x3d344297	0.044008818
78	0x3de3f282	0.11130239
79	0x3d592397	0.053012457
80	0x3c302490	0.010750905
81	0x3e9f1f6a	0.31078655
82	0xbe3903a3	-0.18067794
83	0x3d2f2e9b	0.042769056
84	0xbe2d2bde	-0.16911265
85	0x3dfcd97e	0.12346171
86	0x3daa70e1	0.08322311
87	0xbd1ae3b9	-0.03781483
88	0xbd735a55	-0.05941232
89	0x3a2d06a2	0.00066004146
90	0x3c989566	0.018625926
91	0xbe84139e	-0.25796217
92	0x3db79522	0.08963992
93	0x3e255f20	0.16149569
94	0x3ede95e7	0.4347374
95	0x3dbeced7	0.09316795
96	0x3d7fc4f4	0.06244369
97	0xbebfb315	-0.37441316
98	0x3e31a9dc	0.17349952
99	0xbe709b61	-0.23496772
100	0xbd415969	-0.04720441
101	0xbee5e4b6	-0.44901055
102	0xbdff4d12	-0.12465872
103	0x3bfd5ea2	0.0077322284
104	0x3df4cc68	0.1195305
105	0x3d6cab8e	0.057780795
106	0x3e4e730c	0.20161074
107	0x3e2f8073	0.17138843
108	0x3d2ac57e	0.04169225
109	0xbe0781ce	-0.1323311
110	0x3e39412b	0.18091266
111	0x3e24f16d	0.16107722
112	0x3da6a1e4	0.08136347
113	0x3e39f8e7	0.18161355
114	0xbb81d52d	-0.00396218
115	0xbdd593bf	-0.10428571
116	0xbe946263	-0.28981313
117	0xbd5e44ae	-0.054264717
118	0xbd85e0ac	-0.065369934
119	0xbd7aa404	-0.061191574
120	0xbc914891	-0.017734798
121	0x3e56aabb	0.20963566
122	0xbe159e55	-0.1461118
123	0x3ddc6746	0.10761885
124	0x3e0d83e1	0.13819839
125	0xbdfdb27b	-0.12387558
126	0x3d91ad35	0.07113115
127	0xbd9ad22b	-0.075596176
128	0xbd5ccb08	-0.053904563
129	0xbcc2d321	-0.023782315
130	0xbdc9f39d	-0.09860919
131	0xbc8f9b19	-0.017530011
132	0x3a8a6866	0.0010559678
133	0x3d50d209	0.050981555
134	0xbdef01a4	-0.11670235
135	0x3c90bbaa	0.01766761
136	0x3d3eb2bd	0.046557177
137	0x3bc37c2c	0.00596573
138	0xbc6ecabc	-0.014574703
139	0xbe887341	-0.26650432
140	0xbddb1d45	-0.10698942
141	0xbd738b1c	-0.059458837
142	0x3d083b29	0.033259545
143	0xbc16a08e	-0.009193553
144	0x3b995749	0.0046795947
145	0xbdb3ce3e	-0.08779572
146	0xbd51e703	-0.0512457
147	0xbe5e24c9	-0.2169372
148	0xbe59af44	-0.21258265
149	0xbc8e09b4	-0.017338611
150	0xbc5e0c87	-0.013552791
151	0xbc0b6206	-0.008507257
152	0xbda88235	-0.0822796
153	0x3e0e6cc0	0.13908672
154	0x3ccd138d	0.025033737
155	0x3d36ad0f	0.044598635
156	0x3de63ed6	0.11242454
157	0xbdb2321f	-0.08700966
158	0x3d94a1a4	0.07257393
159	0x3dac3430	0.084083915
160	0x3d804708	0.06263548
161	0x3c391414	0.011296291
162	0xbd32f48a	-0.043690242
163	0xbddca396	-0.10773389
164	0x3db64911	0.08900655
165	0x3b87ed3d	0.004148154
166	0xbdf74df4	-0.12075415
167	0xbdc48ed6	-0.09597556
168	0x3d7ac5b7	0.06122371
169	0xbc2271b6	-0.009914806
170	0x3dfabaaf	0.12242638
171	0xbc8bc41d	-0.017061288
172	0xbde44425	-0.1114581
173	0x3de5e27a	0.112248376
174	0x3c97ebdb	0.018545082
175	0xbcbdbe08	-0.023161903
176	0xbd38b508	-0.04509452
177	0x3bda4814	0.0066614244
178	0xbe57d38e	-0.21076795
179	0x3e50423a	0.20337763
180	0xbcc72a2a	-0.024312098
181	0xbd6316b2	-0.055441566
182	0xbdb7df2e	-0.08978115
183	0x3e2644fa	0.1623725
184	0xbe50e505	-0.20399864
185	0xbde83483	-0.11338141
186	0xbdbe8308	-0.09302336
187	0x3c5d694a	0.013513872
188	0xbc90a59c	-0.017657094
189	0xbe00461c	-0.12526745
190	0xbd0237ad	-0.031791378
191	0xbd48ea4f	-0.04905158
192	0xbdd38e79	-0.10329909
193	0x3cf69fff	0.030105589
194	0xbd74f7e0	-0.059806705
195	0xbd987d5f	-0.07445788
196	0x3de8bf6b	0.11364635
197	0x3e0f65da	0.14003697
198	0xbd0de6b6	-0.03464385
199	0xbcbbb312	-0.022912536
200	0xbda1a287	-0.07892328
201	0xbdd32dbb	-0.10311457
202	0xbcc45298	-0.023965165
203	0x3d2d8aea	0.042368807
204	0x3d55f8f0	0.05223936
205	0x3d07d134	0.033158496
206	0xbd075fbb	-0.03305028
207	0xbd28ef24	-0.041243687
208	0xbd71bffb	-0.059020977
209	0xbb34413e	-0.0027504708
210	0xbe046e10	-0.1293261
211	0xbd36a99f	-0.044595357
212	0xbdab7dbb	-0.083735906
213	0xbc8d1799	-0.017223166
214	0x3ba68eb3	0.005082929
215	0xbcecf28d	-0.028924251
216	0xbcb9fc23	-0.022703236
217	0xbb84ac86	-0.0040488867
218	0xbd378fc8	-0.044814855
219	0x3c8c65d8	0.017138407
220	0xbd538796	-0.051642977
221	0x3c18647c	0.009301301
222	0x3d4887c4	0.0489576
223	0xbdbfb5a4	-0.09360817
224	0xbe8626f1	-0.26201585
225	0x3e271087	0.16314898
226	0xbc38249b	-0.011239196
227	0xbbf7c751	-0.007561602
228	0x3d76fef7	0.060301747
229	0xbd875a42	-0.06609012
230	0xbc958e14	-0.018256225
231	0xbd545f32	-0.051848598
232	0xbe5be30e	-0.21473333
233	0x3b8a0e69	0.0042131436
234	0x3db49228	0.088169396
235	0x3d722e72	0.059126325
236	0x3d90ca6d	0.0706986
237	0xbcb7c691	-0.022433551
238	0xbdbb98f9	-0.091600366
239	0xbdc64587	-0.0968123
240	0xb9f949a8	-0.0004754786
241	0xbe38df2e	-0.18053886
242	0xbd4ba544	-0.049718156
243	0x3d643b2e	0.0557205
244	0x3dc4affa	0.09603877
245	0xbe36a580	-0.1783657
246	0xbda691f3	-0.08133306
247	0x3cb2dcbb	0.021833768
248	0xbbeda96d	-0.007252863
249	0x3a88a9d9	0.0010426595
250	0x3da164d3	0.07880559
251	0x3db72d13	0.08944144
252	0xbd923e56	-0.07140796
253	0x3d88bfca	0.06677206
254	0x3d77f9af	0.06054085
255	0xbcf2fd2f	-0.029661743

net.0.bias f4 [100]
0	0x3c257853	0.010099488
1	0xbdb47917	-0.088121586
2	0x3d61e6a9	0.055151615
3	0xbd800e02	-0.06252672
4	0xbdc80a4a	-0.097675875
5	0x3d9a62d6	0.07538383
6	0xbdae5bed	-0.08513627
7	0x3d91b6e2	0.0711496
8	0x3d07843c	0.033085093
9	0x3d8f444a	0.06995447
10	0xbca26983	-0.019825703
11	0xbd1ea4d9	-0.03873143
12	0x3d58a8f1	0.05289549
13	0xbb4bd62a	-0.0031102994
14	0x3dcd7063	0.10031202
15	0x3d31e303	0.043429386
16	0x3cee076f	0.029056279
17	0x3cf0f4f3	0.029413676
18	0xbdd3cd50	-0.103418946
19	0xbdbefb43	-0.09325268
20	0xbcfb384f	-0.030666498
21	0x3c98f397	0.01867084
22	0xbbfd30a4	-0.0077267457
23	0xbdc58eb0	-0.09646356
24	0x3d35af4e	0.044356637
25	0x3d8479d0	0.064685464
26	0x3d911d91	0.070857175
27	0x3d3cd059	0.046097133
28	0x3d13b291	0.036058966
29	0xbd03ee05	-0.032209415
30	0xbd3289ac	-0.043588325
31	0x3cac9da8	0.02107127
32	0x3ca166dc	0.019702367
33	0xbcfd66bb	-0.030932775
34	0x3c4f6dce	0.012660457
35	0x3df6e2b5	0.1205496
36	0xbbe0bce8	-0.006858457
37	0xbd8e9b33	-0.06963196
38	0xbd02e2dc	-0.03195463
39	0x3d24e9b1	0.040261928
40	0xbd98b7da	-0.07456942
41	0xbd6fde50	-0.058561623
42	0xbdafbf50	-0.08581412
43	0x3cf901b6	0.030396324
44	0xbdd334c8	-0.103128016
45	0xbddcf918	-0.10789698
46	0xbdc33f31	-0.09533537
47	0x3cfc0fbb	0.03076922
48	0xbd54bff8	-0.05194089
49	0xbd051a9a	-0.032496072
50	0x3b5942fd	0.00331515
51	0x3d239ecb	0.03994636
52	0xbd95c86a	-0.073136166
53	0x3cc499e1	0.023999156
54	0xbd26be55	-0.04070886
55	0x3d41672e	0.04721754
56	0x3dac2907	0.08406263
57	0xbcea96f2	-0.02863643
58	0x3d9a3a70	0.07530677
59	0xbcc6b4f2	-0.024256203
60	0xbe0d956c	-0.13826531
61	0xbd805bd1	-0.062675126
62	0x3d2853de	0.041095607
63	0x3cdc92fc	0.026925556
64	0x3d0c7c97	0.034298506
65	0xbd194295	-0.037417013
66	0xbd5816f9	-0.052756283
67	0x3d4bded5	0.049773056
68	0xbd282831	-0.041053955
69	0x3dd0a89c	0.1018841
70	0xbd717a4d	-0.058954526
71	0x3d9467f8	0.07246393
72	0x3d82de71	0.063900836
73	0x3c913b93	0.017728603
74	0x3c962324	0.018327303
75	0xbdade905	-0.084917106
76	0xbcbb9470	-0.022897929
77	0xbc7d3b32	-0.015456008
78	0xbd306b23	-0.043070924
79	0x3cc629c6	0.024189841
80	0xbd831c06	-0.064018294
81	0xbce8b542	-0.028406743
82	0xbd63a6f1	-0.05557913
83	0x3d41399d	0.047174085
84	0xbddf4efe	-0.109037384
85	0x3d8e8e20	0.06960702
86	0xbce2b693	-0.027674949
87	0xbd7bb1f9	-0.061449025
88	0x3ba774f1	0.005110376
89	0x3db008cb	0.08595427
90	0xbd27cea1	-0.04096854
91	0x3d01da4c	0.031702325
92	0x3d509001	0.050918583
93	0x3d3cfb7e	0.04613828
94	0xbd12c5dd	-0.03583323
95	0x3d2f6e23	0.042829644
96	0xbdcfc117	-0.10144251
97	0xbcadaf6a	-0.021201808
98	0xbdc6005a	-0.09668036
99	0x3d51bcfe	0.051205628

net.2.weight f4 [80, 100]
0	0x3e28c8b0	0.16482806
1	0xbccdefa3	-0.025138682
2	0x3ca54b1f	0.020177422
3	0xbdd7c2ae	-0.10535179
4	0x3c2ca0a5	0.0105363475
5	0xbd712607	-0.058874156
6	0xbd93a41f	-0.07209038
7	0xbe9a2128	-0.3010342
8	0x3de92ea7	0.11385851
9	0x3c70cf41	0.014697851
10	0xbda93a6c	-0.08263096
11	0x3d6fc5a4	0.058538094
12	0xbd76b577	-0.060231652
13	0x3e985fc8	0.29760575
14	0xbe45956c	-0.19295281
15	0x3e17c582	0.14821437
16	0x3d15c61d	0.03656589
17	0xbccb014d	-0.024780894
18	0xbde861c1	-0.1134677
19	0x3dc2f5bd	0.09519527
20	0xbd6a5e6c	-0.057218954
21	0x3e0ff62a	0.14058748
22	0xbcf79259	-0.030221151
23	0x3da97e70	0.08276069
24	0xbe898ad2	-0.26863724
25	0xbd8f92f9	-0.07010455
26	0xbcbc0608	-0.022952095
27	0x3e00bbcb	0.12571637
28	0xbc5987d0	-0.013277009
29	0x3d8733ae	0.06601654
30	0xbe11a922	-0.14224675
31	0xbe3cf6a1	-0.18453456
32	0xbdf5956c	-0.119913906
33	0x3b7d7a16	0.0038677505
34	0xbc152354	-0.009102661
35	0x3e4275a1	0.18990184
36	0xbd3358b2	-0.04378576
37	0x3e31247b	0.17299072
38	0xbd6f8ea0	-0.058485627
39	0xbec6d9d3	-0.38838062
40	0x3da90704	0.08253291
41	0x3de31b62	0.11089207
42	0xbd081681	-0.033224586
43	0x3d979a0c	0.07402429
44	0xbdab4569	-0.08362848
45	0xbcacce40	-0.021094441
46	0xbc8bebb8	-0.017080173
47	0xbd2525e7	-0.04031935
48	0xbdbb0409	-0.09131629
49	0xbd7a0c49	-0.061046872
50	0xbccc6d43	-0.024954444
51	0x3dd6d0c9	0.10489041
52	0x3d9f7819	0.07786579
53	0xbe5172cd	-0.2045395
54	0x3d3def39	0.04637072
55	0xbe361225	-0.17780359
56	0x3e26ca9a	0.16288224
57	0x3e7d7da4	0.2475496
58	0xbdceb898	-0.10093802
59	0x3c45856d	0.012055737
60	0x3d8ebfbd	0.06970165
61	0xbe26b689	-0.16280569
62	0xbcb79c85	-0.022413502
63	0x3dcabbed	0.09899125
64	0x3e13599d	0.14389654
65	0x3e42b26f	0.1901338
66	0xbe047cef	-0.12938283
67	0xbd98e987	-0.07466417
68	0x3a54e800	0.0008121729
69	0xbda81208	-0.08206564
70	0x3dbb64df	0.09150099
71	0xbe0f7ecc	-0.14013213
72	0xbd910f80	-0.070830345
73	0xbdac210b	-0.0840474
74	0x3c7ecf76	0.015552392
75	0x3c343557	0.010999045
76	0xbd89ee4d	-0.067349054
77	0x3dc80def	0.097682826
78	0x3b6546cd	0.0034984828
79	0x3dd69754	0.10478082
80	0xbe6a599a	-0.22885743
81	0xbcec508e	-0.028847005
82	0xbe0211b1	-0.12702061
83	0xbdc5f683	-0.09666159
84	0xbc2b7181	-0.010464073
85	0x3eab1f51	0.3342233
86	0xbdb229bd	-0.08699367
87	0x3de6dd99	0.11272735
88	0xbd16b509	-0.036793742
89	0x3e0c0476	0.13673577
90	0x3d950d75	0.07277957
91	0x3dd8bf40	0.10583353
92	0x3dba03fb	0.090827905
93	0x3c50eb15	0.01275136
94	0x3e34347b	0.17598145
95	0xbe379b16	-0.17930254
96	0xbd3b6368	-0.045749098
97	0xbd80ed22	-0.062952295
98	0x3ca41579	0.02002977
99	0x3d036799	0.03208122
100	0x3db260b1	0.08709849
101	0x3d77a6bc	0.060461745
102	0xbd240988	-0.040048152
103	0xbe0cc846	-0.13748273
104	0x3c1a38e0	0.009412974
105	0xbdc92baa	-0.098227814
106	0x3bc89e1a	0.006122363
107	0xbd7b4c87	-0.06135228
108	0x3ca8993d	0.020580882
109	0xbda7eaf4	-0.081991106
110	0xbeacdfcc	-0.33764493
111	0xbd8cbf15	-0.068723835
112	0xbebcc714	-0.36870635
113	0xbebccce7	-0.36875078
114	0xbe7b64d6	-0.24550185
115	0x3b1fe88e	0.0024400088
116	0xbc03e3cd	-0.008049917
117	0xbdc07ed5	-0.09399191
118	0x3c8087b0	0.0156897
119	0x3da286c3	0.0793586
120	0xbc4b52cd	-0.012409878
121	0xbcb454a2	-0.022013012
122	0x3d7bbb3b	0.061457854
123	0x3d5e0108	0.054200202
124	0x3e7150bb	0.23565952
125	0xbd990fed	-0.07473741
126	0xbda417c0	-0.080123425
127	0x3d7eee9e	0.06223928
128	0xbc8d0b35	-0.017217258
129	0xbdb8fc85	-0.09032539
130	0xbe8614c5	-0.2618772
131	0xbe832ba9	-0.25619248
132	0xbc9e47bc	-0.019321315
133	0xbd40308b	-0.046921294
134	0xbcae1ed7	-0.02125494
135	0xbe184cf0	-0.148731
136	0xbdf33efb	-0.11877247
137	0x3e917d69	0.28415993
138	0xbd526ff3	-0.051376294
139	0x3e31d1a5	0.1736513
140	0xbcbee2b7	-0.023301465
141	0xbd993e7d	-0.07482622
142	0xbdef3a02	-0.11680986
143	0xbe094c9f	-0.13408135
144	0xbd20d30f	-0.03926378
145	0xbcd1fd63	-0.02563352
146	0xbd4818f9	-0.04885194
147	0xbc91ac2c	-0.017782293
148	0xbd214e83	-0.039381515
149	0x3e5412e4	0.20710331
150	0xbe82bc77	-0.25534412
151	0xbd17d22e	-0.037065677
152	0x3ded12e2	0.11575867
153	0xbe3159e8	-0.17319453
154	0xbb937004	-0.0044994373
155	0xbe722e5b	-0.23650496
156	0xbe3bc2c4	-0.18336016
157	0x3e067040	0.13128757
158	0xbd873574	-0.06601992
159	0xbd1469d8	-0.036233753
160	0xbcfc3b6e	-0.030790057
161	0xbebe6043	-0.37182817
162	0x3d95f071	0.07321251
163	0x3d6d193a	0.057885386
164	0xbe08e470	-0.13368392
165	0x3e2b8222	0.1674886
166	0x3c902c12	0.01759914
167	0x3c0801cd	0.008301211
168	0x3ce75c13	0.028242147
169	0x3e526a7d	0.20548435
170	0x3cac0e47	0.021002902
171	0xbd2596ca	-0.040427007
172	0xbd87f487	-0.06638437
173	0x3c0eae03	0.00870848
174	0x3cef0589	0.029177444
175	0x3d14e941	0.03635526
176	0x3dae8432	0.08521308
177	0x3d674f9d	0.05647241
178	0xbd8f7eb0	-0.070065856
179	0x3db0399c	0.08604738
180	0x3e8c006e	0.27344078
181	0xbe17745c	-0.14790481
182	0x3d0a74bb	0.03380273
183	0x3e010fde	0.12603709
184	0xbda6e738	-0.0814957
185	0xbe8ce5d6	-0.275191
186	0x3ce3f6b4	0.027827598
187	0xbc706b7f	-0.014674067
188	0x3e60c3ab	0.21949641
189	0x3d9bdbcd	0.07610283
190	0xbdb5933f	-0.088659756
191	0x3e526831	0.20547558
192	0x3cb15673	0.021647668
193	0x3d9d5176	0.07681553
194	0xbe79db0b	-0.24399965
195	0xbecb8a09	-0.3975375
196	0xbcc8b6f2	-0.024501298
197	0x3da03f17	0.078245334
198	0xbda63ccd	-0.081170656
199	0x3c28ee48	0.010310717
200	0xbcd496a8	-0.025950745
201	0x3dc920be	0.09820698
202	0x3d7ab54f	0.061208066
203	0xbdd77b64	-0.10521582
204	0xbcb137a9	-0.021632986
205	0x3d832cc2	0.06405021
206	0x3cbc24e8	0.022966817
207	0xbd5876a0	-0.052847505
208	0xbc749e4f	-0.014930322
209	0x3e2e6131	0.17029263
210	0xbd88ddf4	-0.06682959
211	0x3d7a9a20	0.06118214
212	0x3d41768c	0.047232196
213	0x3d4c2cb2	0.049847312
214	0x3d2171ed	0.03941529
215	0x3e0c1025	0.13678034
216	0x3d85c76a	0.06532176
217	0xbc8cdaad	-0.017194116
218	0x3dac22ae	0.08405052
219	0xbcbc4f67	-0.02298708
220	0x3cef4baa	0.029210884
221	0x3e481e52	0.19542816
222	0x3c0f986a	0.008764366
223	0xbdd98d44	-0.106226474
224	0x3e671e1a	0.22570077
225	0x3dd5993f	0.1042962
226	0xbe742d56	-0.2384542
227	0xbc06bc17	-0.008223555
228	0x3d9d5932	0.07683028
229	0x3d9590a3	0.07302978
230	0xbe1d44a8	-0.15358222
231	0xbdc49347	-0.095984034
232	0xbeaefaba	-0.34175664
233	0x3cd04189	0.025421875
234	0x3d097fa0	0.03356898
235	0x3e19bbec	0.15013093
236	0xbdb4e801	-0.08833314
237	0xbe62d91a	-0.2215313
238	0xbcf17f32	-0.029479597
239	0xbe209a56	-0.15683874
240	0xbe8285d7	-0.25492737
241	0x3cd50fc3	0.026008492
242	0x3d10f707	0.035391834
243	0x3e5744fa	0.21022406
244	0x3e0acceb	0.13554733
245	0x3d9218a2	0.071336046
246	0x3e4bcc4c	0.19902152
247	0x3d944f8b	0.07241734
248	0x3dbaf150	0.09128058
249	0xbd5c0435	-0.05371495
250	0x3cfb16e2	0.03065056
251	0x3afc8a8d	0.0019267366
252	0xbe0bb1dc	-0.13642067
253	0xbd9fce1f	-0.07802986
254	0x3d79a2e1	0.06094635
255	0xbc33b82a	-0.010969201

net.2.bias f4 [80]
0	0x3d1f021e	0.03882038
1	0xbd1ddea7	-0.038542416
2	0xbdb62c91	-0.08895219
3	0xbb099a7f	-0.0020996628
4	0xbddc0c59	-0.10744543
5	0xbd8c6ae5	-0.06856326
6	0xbdeb34a3	-0.11484649
7	0xbce274ae	-0.027643528
8	0x3e0cf2ae	0.1376445
9	0xbd5e61b0	-0.05429238
10	0xbde892e3	-0.113561414
11	0xbdfe32d7	-0.12412041
12	0xbe1e0bfb	-0.15434258
13	0xbd7e0a6d	-0.06202166
14	0xbe1cb6a5	-0.15304048
15	0xbe70066e	-0.23439953
16	0xbdf58b2b	-0.11989435
17	0xbd9543a5	-0.07288293
18	0xbd9ea1c2	-0.077456966
19	0x3d8827d7	0.06648224
20	0xbe1ce537	-0.15321814
21	0xbe114be9	-0.14189114
22	0x3d880dfc	0.06643292
23	0x3be23b78	0.006904062
24	0xbe318dce	-0.1733925
25	0xbe7dfa13	-0.24802427
26	0x3e69332d	0.22773428
27	0x3dc8a8fb	0.097978555
28	0x3e0dd4f2	0.13850763
29	0xbe754d86	-0.23955354
30	0x3c02239b	0.007943059
31	0x3c6b1bd3	0.0143498955
32	0xbdfbda90	-0.12297547
33	0xbe341af4	-0.17588407
34	0x3a65b9db	0.00087633514
35	0x3e834191	0.2563596
36	0x3d23c91f	0.039986726
37	0xbdf61efd	-0.12017629
38	0xbd95db82	-0.073172584
39	0xbe0b5239	-0.13605584
40	0xbd981fe2	-0.07427956
41	0x3c4ce253	0.012505132
42	0xbd326c26	-0.04356017
43	0xbdc695bb	-0.096965276
44	0xbdb7b9bc	-0.08970973
45	0x3da32298	0.079655826
46	0x3d507d69	0.05090085
47	0xbe53d787	-0.20687686
48	0xbe291065	-0.1651016
49	0x3de02c15	0.10945908
50	0xbcfdcc33	-0.030981159
51	0x3db0e1b8	0.086368024
52	0x3d1d3235	0.03837796
53	0xbd1c3cfe	-0.038144104
54	0xbe4b5d0d	-0.19859715
55	0xbca8eb43	-0.020619994
56	0xbe1c6dad	-0.15276213
57	0x3da406a1	0.08009077
58	0x3e1e8b9f	0.15482949
59	0xbe8f5a57	-0.2799861
60	0xbca5ffe5	-0.020263622
61	0xbe0f63b8	-0.14002883
62	0x3d5932cd	0.053026963
63	0x3d8dca1d	0.06923316
64	0xbd6fce31	-0.05854625
65	0xbb776ffa	-0.0037755952
66	0xbdf332d2	-0.118749276
67	0xba8c8dbc	-0.0010723392
68	0xbd642cdf	-0.055706855
69	0xbe422430	-0.18959117
70	0x3d6bfca5	0.057613987
71	0xbe6a7b28	-0.22898543
72	0x3d0bccc1	0.034130815
73	0xbd3e99fb	-0.046533566
74	0x3e1bc67b	0.15212433
75	0xbd1e6112	-0.038666792
76	0xbcdaf89c	-0.026729874
77	0xbc56694b	-0.013086627
78	0x3d736c0d	0.059429217
79	0x3dc55881	0.096360214

net.4.weight f4 [50, 80]
0	0xbd29465f	-0.041326877
1	0xbe80a3ac	-0.25124872
2	0x3c5a908b	0.013340126
3	0xbde895ea	-0.11356719
4	0x3d6ca98c	0.05777888
5	0xbdb0b3ee	-0.08628069
6	0x3e08087c	0.13284487
7	0x3c9b4599	0.018954085
8	0x3d463f87	0.04840043
9	0xbd9b1771	-0.075728305
10	0x3e21bb15	0.15794022
11	0x3c750621	0.0149550745
12	0xbdf6deb2	-0.120541945
13	0xbe0ca865	-0.13736112
14	0xbe15ce66	-0.14629516
15	0xbcde8610	-0.027163535
16	0x3e15eb20	0.14640474
17	0xbbdf13ee	-0.0068077957
18	0x3b1ecd81	0.0024231377
19	0xbde1ac0f	-0.11019146
20	0x3ccec4b7	0.025240285
21	0xbcff9731	-0.031200023
22	0x3d931cee	0.07183252
23	0x3d1290b7	0.035782542
24	0x3ddc7a72	0.10765542
25	0xbdfd5b22	-0.12370898
26	0xbcc21d3c	-0.02369558
27	0x3c3db42b	0.0115786
28	0x3eab811c	0.3349694
29	0x3c8261f9	0.015915858
30	0xbe7e887c	-0.24856752
31	0x3d651090	0.055924
32	0x3d76e559	0.060277317
33	0x3e4ba89c	0.19888538
34	0xbdb080f5	-0.086183466
35	0x3e4efc00	0.20213318
36	0x3e3f22ce	0.1866562
37	0xbe590dbd	-0.21196647
38	0x3d888f16	0.066679165
39	0x3c1e89b6	0.0096763875
40	0x3e29aad9	0.1656908
41	0xbe359493	-0.17732458
42	0x3e472aaa	0.19449869
43	0xbd59fc43	-0.05321909
44	0xbdee5f25	-0.11639241
45	0xbeb28174	-0.3486439
46	0x3df66944	0.120317966
47	0xbeaa2e6d	-0.33238545
48	0x3e1de410	0.1541903
49	0xbd7dfed3	-0.062010597
50	0xbecdb5d2	-0.4017778
51	0x3da6be4f	0.08141767
52	0x3e6c3279	0.23066129
53	0x3d99a55a	0.075022414
54	0x3e62cd54	0.22148639
55	0x3d6997d8	0.057029575
56	0x3dc397bc	0.095504254
57	0xbde07c42	-0.109612
58	0xbe10e1d7	-0.14148651
59	0x3dc4e99b	0.09614869
60	0x3c401e23	0.011725935
61	0x3e617cd8	0.2202028
62	0xbdc85a13	-0.09782805
63	0x3dea704e	0.11447202
64	0xbd21bf7f	-0.039489266
65	0xbec77679	-0.38957575
66	0xbca41c56	-0.020033043
67	0xbe62a227	-0.22132169
68	0x3ec57b1b	0.38570485
69	0xbde1c586	-0.11024003
70	0xbe3e1814	-0.18563873
71	0xbe3745e4	-0.17897755
72	0x3e0c4b5b	0.13700621
73	0x3e2bc8ef	0.16775869
74	0x3e5e956d	0.21736689
75	0xbebfd99b	-0.37470707
76	0x3d95ca93	0.073140286
77	0xbd970489	-0.07373912
78	0x3e030559	0.12795009
79	0xbdf71b73	-0.120657824
80	0x3e813c8b	0.25241503
81	0x3dbe5a91	0.09294618
82	0xbde7e63f	-0.11323213
83	0xbd354aca	-0.044260778
84	0x3dad95fb	0.08475872
85	0xbd10f289	-0.03538755
86	0xbca0951b	-0.019602349
87	0xbd09ca87	-0.03364041
88	0xbd629a0d	-0.055322696
89	0xbdff8a54	-0.12477556
90	0x3e39bd99	0.18138732
91	0xbd252a15	-0.040323336
92	0xbdc02f8a	-0.09384067
93	0xbe6731b8	-0.2257756
94	0xbdc47f80	-0.09594631
95	0x3e6cfa4c	0.23142356
96	0xbd5e145d	-0.05421864
97	0xbe502d30	-0.20329738
98	0xbdef8843	-0.11695912
99	0xbe590817	-0.21194492
100	0x3e39e9a2	0.1815553
101	0xbde92bd7	-0.11385315
102	0xbee668cc	-0.4500183
103	0xbd3e98d7	-0.04653248
104	0xbe3dcc58	-0.18534982
105	0xbc874376	-0.01651166
106	0x3d65e2a9	0.056124363
107	0xbbc9a6c6	-0.006153914
108	0x3d74b86e	0.0597462
109	0x3d8250b7	0.063630514
110	0x3e4ec916	0.20193896
111	0x3e4cfd0d	0.20018406
112	0xbcdf3fc0	-0.027252078
113	0xbe1982bc	-0.14991277
114	0xbdd81b45	-0.10552076
115	0x3e031dca	0.12804332
116	0xbe202e35	-0.15642627
117	0x3dffe8e8	0.12495595
118	0x3bf750c4	0.00754747
119	0xbde7e1b6	-0.11322348
120	0xbd16fe4c	-0.03686361
121	0xbe30a419	-0.17250098
122	0xbdff5e4d	-0.12469158
123	0xbb81dcb3	-0.003963077
124	0x3e5d1b14	0.2159236
125	0xbe832662	-0.2561522
126	0x3da39239	0.07986874
127	0xbe14da71	-0.14536454
128	0xbde5e14d	-0.11224613
129	0x3e08677e	0.13320729
130	0xbd938b81	-0.07204343
131	0x3e8a122b	0.26966986
132	0xbd375bcd	-0.044765282
133	0xbd4b33d1	-0.049609963
134	0xbe0dba82	-0.13840678
135	0xbe26d36e	-0.16291592
136	0x3e8a5d9c	0.27024543
137	0x3e665a86	0.2249547
138	0x3de20784	0.1103659
139	0xbd560118	-0.052247137
140	0x3caba6a8	0.020953491
141	0xbdcc2026	-0.09967069
142	0xbd946fdc	-0.07247898
143	0xbe8f57a9	-0.27996567
144	0xbe380525	-0.17970712
145	0xbde81f4c	-0.113340944
146	0xbbf96525	-0.0076109343
147	0x3e52225e	0.20520923
148	0x3e466a47	0.19376479
149	0xbc4e2e08	-0.012584217
150	0xbe1a69ed	-0.1507947
151	0x3e9c3918	0.3051231
152	0x3bf8da16	0.0075943572
153	0xbe9db37b	-0.30800995
154	0xbe1aa4df	-0.15101956
155	0xbdda17d4	-0.10649076
156	0x3cd6afdd	0.026206905
157	0xbe355491	-0.17708041
158	0x3d6ec089	0.058289085
159	0xbe5a55b1	-0.21321751
160	0xbe5929a5	-0.21207292
161	0x3e92ebaa	0.28695422
162	0xbe44b267	-0.1920868
163	0xbc0d2ff0	-0.008617386
164	0xbd90e401	-0.07074738
165	0xbe9faae0	-0.31185055
166	0xbe94b9c8	-0.2904799
167	0x3eb4c25a	0.35304528
168	0xbebd81e5	-0.37013164
169	0x3e2685b3	0.1626194
170	0xbd2560a2	-0.04037536
171	0x3cb6f6e6	0.022334527
172	0x3cc854aa	0.024454433
173	0x3e128f1d	0.14312406
174	0xbe16e306	-0.1473504
175	0x3ea0f5d4	0.31437552
176	0x3ea1719b	0.31531987
177	0xbe101655	-0.14071019
178	0x3dcd7225	0.10031537
179	0xbe225e6f	-0.15856336
180	0xbd664663	-0.05621947
181	0xbc6da335	-0.014504244
182	0xbdd417bd	-0.1035609
183	0xbdec2b77	-0.11531728
184	0x3e8aa01e	0.27075285
185	0x3e6eb1bb	0.23309986
186	0xbe422d11	-0.18962504
187	0xbc374a23	-0.011187109
188	0xbe5b5e5b	-0.21422713
189	0xbd059afd	-0.03261851
190	0xbd978550	-0.07398474
191	0xbd51c182	-0.051209934
192	0x3d6e0895	0.058113653
193	0x3e07776b	0.13229148
194	0xbe417fcd	-0.18896408
195	0x3d0a9a24	0.033838406
196	0xbe481933	-0.19540863
197	0x3d18273e	0.0371468
198	0xbc3ce98b	-0.01153029
199	0x3d9dacc0	0.07698965
200	0x3de4d7f1	0.11174
201	0xbe5b659d	-0.21425481
202	0xbf096834	-0.53674626
203	0xbedd8a0a	-0.43269378
204	0xbe6264e3	-0.22108798
205	0x3de42162	0.1113918
206	0x3e1902ef	0.14942525
207	0xbcd2da7f	-0.025738953
208	0xbe365ea5	-0.17809542
209	0xbe5c71a5	-0.21527727
210	0x3e32d266	0.17463073
211	0xbea46cd6	-0.32114285
212	0xbe6fb336	-0.23408207
213	0x3e270110	0.16308999
214	0xbdf56a4c	-0.11983165
215	0xbe1fd42d	-0.15608282
216	0xbe03a744	-0.12856776
217	0x3dc81344	0.097692996
218	0xbd9b15f0	-0.075725436
219	0x3e8982d4	0.26857626
220	0xbd8368b7	-0.06416457
221	0x3ed5e038	0.41772628
222	0xbeb42c17	-0.35189888
223	0xbeca13e4	-0.394683
224	0xbdf02a84	-0.11726859
225	0xbd987276	-0.07443707
226	0xbe790954	-0.24319965
227	0x3c146b3e	0.009058772
228	0xbd9df5ad	-0.077128746
229	0xbccd9e64	-0.02509994
230	0x3dd19389	0.10233218
231	0x3e6a1dcd	0.2286293
232	0x3e1d21b1	0.15344884
233	0xbe9dab42	-0.30794722
234	0x3e5cc427	0.21559201
235	0x3d9b520e	0.0758401
236	0xbbec113e	-0.007204204
237	0xbc22076d	-0.009889466
238	0xbe5db1fb	-0.21649925
239	0x3e35302a	0.17694154
240	0x3c84b44f	0.01619926
241	0x3e519978	0.204687
242	0xbeb59630	-0.35466146
243	0x3cfc4904	0.030796535
244	0xbe29f0ec	-0.1659581
245	0x3e95aad4	0.29231894
246	0xbeb949a6	-0.36189002
247	0xbe0c521b	-0.13703196
248	0x3e0f4d72	0.13994387
249	0x3e021c74	0.12706167
250	0x3ba24754	0.0049523506
251	0xbe2cf167	-0.16888963
252	0xbe2f18de	-0.1709933
253	0x3da1907c	0.07888886
254	0x3dbced74	0.09224978
255	0xbd13cd21	-0.036084298

net.4.bias f4 [50]
0	0xbd2c13c2	-0.04201103
1	0x3eef2381	0.46706775
2	0xbe8f4b9a	-0.27987367
3	0x3ddfa8f7	0.10920899
4	0x3eb5217e	0.35377115
5	0xbe9c2b2c	-0.30501688
6	0xbee9c428	-0.45657468
7	0xbeacdfc3	-0.33764467
8	0x3e3e8056	0.18603644
9	0xbdd5bded	-0.10436616
10	0xbe355ce4	-0.17711216
11	0x3bc66f52	0.006055751
12	0xbd785f1b	-0.060637575
13	0x3db3f08f	0.08786117
14	0x3e854134	0.2602631
15	0xbd62d496	-0.05537852
16	0x3dc9b34a	0.0984865
17	0x3eb9f18e	0.36317104
18	0x3e728cec	0.2368657
19	0xbe4f0da1	-0.20220043
20	0xbcf9acd5	-0.03047792
21	0x3d937cb2	0.07201518
22	0xbd083888	-0.033257037
23	0xbe5f64d8	-0.21815813
24	0x3d90bed0	0.070676446
25	0xbe3ddd87	-0.18541537
26	0x3d7505eb	0.059820097
27	0xbdc41b18	-0.0957548
28	0xbe441f67	-0.19152604
29	0xbe85599d	-0.26044932
30	0xbe5fb3a2	-0.21845868
31	0x3e2473d5	0.16059811
32	0xbe9217c0	-0.28533745
33	0xbd4e08b7	-0.05030128
34	0xbbe4dd62	-0.0069843987
35	0xbb201b08	-0.0024430174
36	0x3e82c5dc	0.2554158
37	0xbdb675e6	-0.08909206
38	0xbea2ca79	-0.317951
39	0xbe5d424c	-0.21607322
40	0xbd40e9d5	-0.047098
41	0xbe9c84ae	-0.30569977
42	0xbecd9179	-0.4015005
43	0x3d117f8f	0.03552204
44	0x3e83c1d5	0.2573382
45	0xbe302e5d	-0.17205186
46	0x3db48395	0.0881416
47	0xbcb2c32f	-0.021821586
48	0x3d3c6be9	0.04600135
49	0x3d15bf0b	0.036559146

net.6.weight f4 [25, 50]
0	0xbea77ee4	-0.32713997
1	0xbd951a96	-0.072804615
2	0xbd95980a	-0.0730439
3	0xbe5f0811	-0.21780421
4	0x3de3dc86	0.11126046
5	0x3d3eea5e	0.04661023
6	0xbd642a33	-0.055704307
7	0x3e71c2e3	0.236095
8	0xbdb915f0	-0.09037387
9	0xbe4af6c1	-0.19820692
10	0x3d8f304d	0.069916345
11	0xbe88656c	-0.2663988
12	0x3e1347db	0.1438288
13	0xbe7ab232	-0.24482039
14	0xbe7b10cf	-0.2451813
15	0x3e447f4d	0.19189186
16	0x3cf4797b	0.029843083
17	0xbe9929d5	-0.29914728
18	0x3b8c7620	0.0042865425
19	0xbd9122db	-0.07086726
20	0xbda9ce94	-0.08291355
21	0xbd06572c	-0.032797977
22	0x3d6f0aef	0.058360036
23	0xbef65b6e	-0.4811663
24	0x3d478772	0.048713155
25	0x3d0302e2	0.03198517
26	0xbd747e8d	-0.059691
27	0x3c2f5c68	0.010703184
28	0xbdf98911	-0.121843465
29	0xbdbb0f86	-0.0913382
30	0x3d250ead	0.0402972
31	0xbee86f05	-0.453972
32	0xbe25e33c	-0.16199964
33	0xbeeb2b47	-0.45931455
34	0xbe0bde0c	-0.13658923
35	0xbc2538f5	-0.01008438
36	0xbe52e47c	-0.20594972
37	0xbe7ab394	-0.24482566
38	0xbdbddf9c	-0.09271166
39	0xbe252651	-0.16127898
40	0x3b8b5d19	0.0042530415
41	0xbdea4ab8	-0.11440033
42	0x3e087e6b	0.13329475
43	0x3d805861	0.06266857
44	0xbf105171	-0.5637427
45	0x3e0c37df	0.13693188
46	0x3e007c88	0.12547505
47	0xbdf9a263	-0.12189176
48	0x3e02694e	0.12735483
49	0xbbc6320a	-0.0060484456
50	0xbe0a9d5a	-0.13536587
51	0xbd4b1b19	-0.04958639
52	0xbeb48c1e	-0.3526315
53	0xbdf74512	-0.12073721
54	0xbe01e558	-0.12685144
55	0x3e025a3e	0.12729737
56	0x3e365e67	0.17809449
57	0x3d0010a5	0.031265873
58	0x3dd5c78f	0.104384534
59	0xbebbb3ee	-0.36660713
60	0x3e3cf5ca	0.18453136
61	0xbec7ed63	-0.390483
62	0xbcecb5b8	-0.028895244
63	0x3e90f182	0.28309256
64	0xbdc3ab6a	-0.09554179
65	0xbd0853f1	-0.033283178
66	0x3e1134d6	0.14180312
67	0xbe954c27	-0.29159662
68	0xbd9ab181	-0.075533874
69	0xbe1bd413	-0.15217619
70	0x3d878c54	0.06618562
71	0xbe7e5b57	-0.24839531
72	0xbd872f10	-0.06600773
73	0xbe8c548a	-0.27408248
74	0xbe8e6833	-0.27813873
75	0x3de55d1d	0.111994006
76	0x3cc0d30e	0.023538139
77	0xbe4b7475	-0.19868644
78	0x3e0666d1	0.13125159
79	0x3e896bfe	0.26840204
80	0x3da3db02	0.08000757
81	0x3ca68ece	0.020331766
82	0xbd90785c	-0.07054207
83	0xbdc32ff6	-0.09530632
84	0x3e39a0de	0.18127772
85	0x3e727908	0.23678982
86	0xbddbf67d	-0.10740373
87	0xbdf8e700	-0.12153435
88	0xbca3349c	-0.019922547
89	0x3db8a6f7	0.09016221
90	0xbdbef150	-0.093233705
91	0x3e2f5057	0.17120491
92	0x3db2e64f	0.08735334
93	0x3da2b83a	0.07945295
94	0xbe17d4c3	-0.14827256
95	0xbdb33f01	-0.087522514
96	0xbd0e0d5e	-0.034680717
97	0xbe2ab7ee	-0.16671726
98	0xbdd1aa03	-0.10237505
99	0x3df3fd8a	0.11913593
100	0xbd2caa8c	-0.042154834
101	0xbac7c62f	-0.0015241558
102	0x3da20e99	0.079129405
103	0xbe3377e6	-0.17526206
104	0x3e098396	0.13429102
105	0x3d3813e3	0.04494084
106	0x3e6008da	0.21878377
107	0xbe08162f	-0.13289712
108	0x3d560ef0	0.05226034
109	0xbc7b576a	-0.015340665
110	0xbc8edd8f	-0.017439632
111	0x3db03657	0.086041145
112	0x3e0a8029	0.13525452
113	0x3e6efb27	0.23337995
114	0xbe94b422	-0.2904368
115	0x3e622321	0.22083713
116	0x3db468dd	0.088090636
117	0xbd55aeed	-0.052168775
118	0x3e49e1e5	0.19715078
119	0xbe583cfe	-0.21117017
120	0xbd338fc4	-0.043838277
121	0x3e03e078	0.12878597
122	0x3e367fb7	0.17822157
123	0xbe09b9f3	-0.1344984
124	0xbe1bc1a9	-0.15210594
125	0xbd68432b	-0.05670468
126	0x3e5e68d6	0.21719679
127	0xbe70c637	-0.23513113
128	0x3cf0a3c6	0.029374968
129	0x3d65c4cb	0.05609588
130	0xbd87de0a	-0.066341475
131	0x3d29fb84	0.04149963
132	0xbe5e9c45	-0.217393
133	0xbd85daa1	-0.06535841
134	0x3e1a51b1	0.15070225
135	0x3e67bb81	0.22630121
136	0x3dd1d48f	0.102456205
137	0xbde45736	-0.11149447
138	0xbd89403b	-0.06701704
139	0x3dbbcad8	0.09169549
140	0x3d0b1d8e	0.033963732
141	0x3dd77da1	0.10522009
142	0xbc866015	-0.016403237
143	0x3dc67df7	0.09691995
144	0xbd10ca9c	-0.035349473
145	0xbb6d4d6a	-0.0036209472
146	0xbe19c325	-0.15015848
147	0xbd27acc9	-0.040936265
148	0xbd57f135	-0.052720267
149	0x3e720f9f	0.23638771
150	0x3dd83652	0.10557236
151	0xbcc50ee7	-0.024054958
152	0xbe4b6f27	-0.1986662
153	0xbdaab508	-0.0833531
154	0x3e05201c	0.1300053
155	0xbe5d9dd5	-0.2164224
156	0xbccab27f	-0.024743317
157	0xbe720535	-0.23634799
158	0x3e07d3a6	0.13264331
159	0xbd562551	-0.05228168
160	0x3e50dc8d	0.20396633
161	0x3cf95b8f	0.030439166
162	0xbe1fa665	-0.15590818
163	0x3dc3bb9c	0.09557268
164	0xbc6931b9	-0.014233046
165	0x3e0f3084	0.13983351
166	0xbe1a392a	-0.15060869
167	0x3e610979	0.2197627
168	0x3d112138	0.03543207
169	0x3d87a02d	0.06622348
170	0x3df56f47	0.11984115
171	0xbe16943c	-0.14704984
172	0x3da54b39	0.08070988
173	0xbe2bb163	-0.16766886
174	0x3daf6600	0.08564377
175	0xbcfb9cf7	-0.030714495
176	0xbdf0739c	-0.11740801
177	0xbe88db71	-0.2672992
178	0xbe7601e1	-0.24024154
179	0x3d8597a0	0.06523061
180	0xbdf51744	-0.11967328
181	0x3ddd2fcd	0.10800133
182	0xbe0f032f	-0.13966058
183	0x3c3d0484	0.011536721
184	0xbda75734	-0.081709296
185	0x3e010a05	0.12601478
186	0x3e133cbd	0.14378639
187	0xbe04223d	-0.12903686
188	0xbe04807b	-0.12939636
189	0xbd316c72	-0.043316312
190	0x3df544cc	0.119760126
191	0x3d04109f	0.032242414
192	0xbd8b3731	-0.06797636
193	0xbc5d1312	-0.013493316
194	0x3ddfe8a3	0.10933044
195	0xbdbcfc3d	-0.09227798
196	0xbdc8dcab	-0.09807714
197	0xbe738999	-0.23782958
198	0x3e4401e0	0.1914134
199	0xbb6a15ab	-0.0035718482
200	0xbe103715	-0.14083512
201	0xbda3a74d	-0.079908945
202	0xbe5f1664	-0.21785885
203	0xbea3b601	-0.31974795
204	0x3df56669	0.11982424
205	0xbd18ad89	-0.03727487
206	0xbe8161ea	-0.25270015
207	0xbd54b22c	-0.05192773
208	0xbb2aaca6	-0.0026042848
209	0xbf04cf02	-0.5187837
210	0x3e2f1035	0.17096026
211	0xbd8a9272	-0.067662135
212	0xbde56cec	-0.11202416
213	0xbd886677	-0.066601686
214	0xbeea0ac7	-0.45711347
215	0x3e6f6fd2	0.233825
216	0x3d91e09f	0.07122921
217	0x3d9b0363	0.07569005
218	0x3d818360	0.06323886
219	0xbe14a623	-0.14516501
220	0x3dbdddab	0.092707954
221	0x3e6a5156	0.2288259
222	0x3e289496	0.16462931
223	0x3e241278	0.1602267
224	0x3c4af48e	0.012387408
225	0xbea8a57f	-0.32938763
226	0xbd94df75	-0.072691835
227	0x3e0e024c	0.13868064
228	0xbbf4c6f9	-0.0074700085
229	0xbd1c8520	-0.038212895
230	0xbe79c5a3	-0.24391799
231	0x3da0a382	0.07843687
232	0x3df34d07	0.11879926
233	0xbe357e4c	-0.1772396
234	0xbcec0fb8	-0.028816089
235	0x3e06acfe	0.13151929
236	0x3df778d7	0.12083595
237	0x3e6e745b	0.23286574
238	0x3d6f488a	0.058418788
239	0xbda8d0c7	-0.08242946
240	0xbea35859	-0.3190334
241	0xbec3c06f	-0.38232753
242	0x3d2f08d7	0.04273304
243	0x3b228fc8	0.0024804939
244	0x3e0673c3	0.13130097
245	0x3e5a335d	0.21308656
246	0xbe85b8dd	-0.26117602
247	0x3b80c10c	0.003929263
248	0xbe41be79	-0.18920316
249	0xbbae19a4	-0.005313115
250	0x3d76fc59	0.06029925
251	0xbd8aef4b	-0.06783923
252	0x3e3bd753	0.18343858
253	0xbdf8fc1e	-0.121574625
254	0xbe3a5c2d	-0.18199225
255	0xbe7085e7	-0.2348858

net.6.bias f4 [25]
0	0x3d338aec	0.043833658
1	0xbe2337c4	-0.15939242
2	0x3eba7da4	0.3642398
3	0x3eae76b0	0.34074926
4	0x3ed40afd	0.41414633
5	0xbe8351a9	-0.2564824
6	0x3e22d8a4	0.15902954
7	0x3d8374d8	0.064187706
8	0x3dee8bbf	0.11647748
9	0xbe465696	-0.19368967
10	0x3e878088	0.2646525
11	0x3ed816e2	0.42204958
12	0xbe1e2802	-0.1544495
13	0x3e0a6903	0.13516621
14	0xbe3b10ed	-0.18268175
15	0xbddb181b	-0.10697957
16	0xbdd58238	-0.10425228
17	0x3f121c4a	0.57074416
18	0x3df666fc	0.120313615
19	0xbe775913	-0.24155073
20	0xbdf942f1	-0.12170971
21	0x3eed0f06	0.46300524
22	0xbe35cfa3	-0.17754988
23	0x3e6ad70d	0.22933598
24	0x3ef08c26	0.46981925

net.8.weight f4 [10, 25]
0	0x3dbcd4c2	0.09220268
1	0x3e8bb6f8	0.27288032
2	0x3e0cc93a	0.13748637
3	0xbd8bd911	-0.068285115
4	0x3d0d515b	0.034501415
5	0xbd42fde8	-0.047605425
6	0x3d8811b5	0.06644002
7	0x3de943fc	0.1138992
8	0x3c76679a	0.015039349
9	0x3e2b62a0	0.16736841
10	0x3d2dc7b5	0.042426784
11	0xbce057e5	-0.027385661
12	0xb9d14521	-0.00039915091
13	0x3ceddbd8	0.029035494
14	0x3c89c1c0	0.01681602
15	0x3d9cf2d6	0.07663505
16	0x3dae1390	0.08499825
17	0xbdadc86a	-0.084854916
18	0x3e0ec9b3	0.1394413
19	0x3e1befbf	0.15228175
20	0x3e68f4ea	0.22749677
21	0x3ddc565d	0.1075866
22	0x3da685c8	0.081309855
23	0x3d2dfb7b	0.04247616
24	0xbc8057f6	-0.015666943
25	0xbc798ff6	-0.015232077
26	0xbe2c9abd	-0.16855903
27	0x3d91f383	0.07126524
28	0xbe7557a8	-0.2395922
29	0xbe846a85	-0.25862518
30	0x3e60e910	0.21963906
31	0x3e747d08	0.2387582
32	0xbe4b0d36	-0.19829258
33	0xbe877a6b	-0.26460585
34	0xbd972a03	-0.0738106
35	0x3d969aa9	0.07353718
36	0xbf6134a3	-0.8797094
37	0xbe1f8e1a	-0.15581551
38	0xbe209fff	-0.15686034
39	0xbecea4f9	-0.4036024
40	0xbd14d8fe	-0.036339752
41	0xbee0e697	-0.43925926
42	0xbd176deb	-0.03697006
43	0x3e0c5079	0.13702573
44	0x3eb4ca77	0.35310718
45	0x3e03b259	0.12861003
46	0xbf4ef7d9	-0.80846936
47	0x3ddd000d	0.10791025
48	0xbdc41b97	-0.09575575
49	0xbe5b8309	-0.21436705
50	0x3adbe538	0.0016776687
51	0xbc48fd7e	-0.0122674685
52	0x3d852f47	0.06503158
53	0x3d88f106	0.066865966
54	0xbd9ab4e2	-0.07554032
55	0xbb9e8b7b	-0.0048384047
56	0x3c6a64e9	0.014306285
57	0x3bcc4941	0.0062343185
58	0x3e48b6d1	0.19600989
59	0x3cfeef34	0.03111992
60	0x3e365e83	0.17809491
61	0xbc1c8557	-0.009553275
62	0xbe123d46	-0.14281186
63	0x3cbeb307	0.023278726
64	0xbe286ea1	-0.16448452
65	0xbebdce95	-0.37071672
66	0x3db08273	0.08618631
67	0xbca9d8e9	-0.020733314
68	0x3e2863cd	0.16444321
69	0x3c42c20a	0.011887083
70	0x3e2f2ec7	0.17107688
71	0x3dc4bb18	0.09605998
72	0x3d4a8812	0.049446173
73	0x3e6442de	0.22291133
74	0x3d7a7fd2	0.061157055
75	0x3d7e78f3	0.062127065
76	0x3dd38141	0.103273876
77	0xbd114f79	-0.03547618
78	0xbc2ecd0b	-0.010669003
79	0xbdfff272	-0.12497415
80	0x3da7c4a8	0.08191806
81	0xbe50f9b6	-0.20407757
82	0x3e120bd0	0.14262319
83	0x3e572a33	0.21012191
84	0xbec918d6	-0.3927676
85	0x3dfc8c21	0.12331415
86	0x3e2f9380	0.1714611
87	0x3d59520d	0.053056765
88	0xbb88ea8e	-0.0041783517
89	0xbdf27521	-0.11838747
90	0xbe1e8469	-0.15480198
91	0x3e34f1ba	0.17670336
92	0x3dd3cf00	0.103422165
93	0xbd006f9d	-0.031356443
94	0x3ccb22ab	0.024796804
95	0xbe363132	-0.17792204
96	0x3dec755a	0.115458205
97	0xbe1d75e1	-0.15376998
98	0x3d40d061	0.047073726
99	0x3e1f6755	0.15566762
100	0x3cd4c8f9	0.025974737
101	0xbdaabbf1	-0.08336628
102	0x3e0ea32b	0.13929431
103	0x3db49d6c	0.08819088
104	0x3e20c9b4	0.15701944
105	0x3da53596	0.08066861
106	0xbc0d09f5	-0.008608331
107	0xbdc1926d	-0.094517566
108	0x3db96dd8	0.09054154
109	0xbdd4b1dd	-0.10385487
110	0xbd51b2a7	-0.051195767
111	0xbd6ae8cf	-0.05735093
112	0x3e120ca4	0.14262635
113	0xbd324942	-0.043526895
114	0xbe21d08b	-0.15802209
115	0xbb11aa0a	-0.0022226595
116	0xbd8c4dbe	-0.06850766
117	0x3e1184ef	0.14210866
118	0x3e0a0d06	0.1348153
119	0x3c80ff87	0.015746845
120	0x3e0f3c49	0.1398784
121	0x3db5da0e	0.08879481
122	0xbc8057a7	-0.015666796
123	0x3df16219	0.11786289
124	0x3dadeef5	0.08492843
125	0x3ba99e64	0.0051763523
126	0x3e5e9e33	0.21740036
127	0x3d8f46ba	0.06995912
128	0x3dc9404e	0.09826718
129	0x3d977916	0.07396142
130	0xbd54de3f	-0.051969763
131	0xbc79fd44	-0.015258137
132	0x3dbbd352	0.091711655
133	0x3c5ba4e5	0.013406013
134	0x3bf44af0	0.0074552223
135	0xbe337834	-0.17526323
136	0x3de7d4d3	0.1131989
137	0xbcad944a	-0.021188874
138	0x3e3e945b	0.1861128
139	0x3d7674d4	0.06017001
140	0x3db61c65	0.088921346
141	0x3e43a54f	0.19106029
142	0xbe301501	-0.17195512
143	0x3e1a17b1	0.150481
144	0x3e5d3a62	0.21604303
145	0x3dc35a1a	0.0953867
146	0xbe32cbc3	-0.17460541
147	0x3e19f03f	0.15033053
148	0x3d3a00f2	0.045411058
149	0xbca29001	-0.019844057
150	0xbee5c73d	-0.4487857
151	0x3e04605e	0.12927386
152	0xbe6dd040	-0.23223972
153	0xbe13083f	-0.14358614
154	0xbede66c7	-0.43437788
155	0x3e7d8933	0.24759369
156	0xbe51ca44	-0.20487314
157	0xbdd5a65c	-0.10432121
158	0xbee77aad	-0.45210782
159	0x3d452024	0.048126355
160	0xbeeb0b6e	-0.45907158
161	0x3cc1c783	0.023654705
162	0xbd5ad849	-0.05342892
163	0xbe22855a	-0.15871182
164	0x3e0e9639	0.13924493
165	0x3c452dfc	0.012034889
166	0xbe14fb10	-0.14548898
167	0xbe5aeab8	-0.213786
168	0x3e206f9a	0.15667573
169	0x3efa66c0	0.48906517
170	0xbe39630d	-0.18104191
171	0x3e429236	0.19001088
172	0xbe1e31b1	-0.15448643
173	0xbe6537f4	-0.22384626
174	0x3e7c22d9	0.24622668
175	0xbe274500	-0.16334915
176	0x3d8f73d8	0.07004517
177	0x3e142f3e	0.14471146
178	0xbc7aaa10	-0.015299335
179	0x3d40ed5e	0.04710137
180	0x3dd67d2d	0.10473094
181	0x3d7919a6	0.060815476
182	0x3d95e688	0.07319361
183	0xbdd029e3	-0.10164239
184	0xbe1fedf9	-0.15618123
185	0xbe1ed0a3	-0.15509276
186	0x3e64c51d	0.22340818
187	0x3cf173cf	0.029474167
188	0xbd13db55	-0.036097843
189	0xbc9ea3bc	-0.019365184
190	0x3e704cbc	0.23466772
191	0x3dc4f3a1	0.09616781
192	0x3da7d5c6	0.08195071
193	0xbda14cc2	-0.078759685
194	0x3c3ded56	0.01159223
195	0x3cfb9e2b	0.030715069
196	0x3df3ad1e	0.11898254
197	0xbd8dba34	-0.06920281
198	0xbde24d34	-0.110498816
199	0x3bc77a1c	0.0060875546
200	0x3e5d58a8	0.21615851
201	0xbc811b09	-0.015759962
202	0xbe02ef8e	-0.12786695
203	0xbd491dd8	-0.049100727
204	0xbd7d03b6	-0.061771117
205	0xbc1e5430	-0.009663627
206	0x3da1c91b	0.07899686
207	0x3e3afe5e	0.18261096
208	0xbc6d37c8	-0.014478631
209	0xbd8e77b6	-0.06956427
210	0x3e2f5094	0.17120582
211	0xbe90de0d	-0.2829441
212	0xbda8b0ad	-0.08236823
213	0x3d10ea89	0.03537992
214	0xbd9a30bb	-0.07528826
215	0xbd929ddd	-0.07159016
216	0xbd617814	-0.055046156
217	0x3e11620f	0.14197563
218	0x3de543d2	0.11194576
219	0x3e484d44	0.19560724
220	0x3d6cb47d	0.057789315
221	0xbde8ee8a	-0.11373623
222	0x3d3b422b	0.0457174
223	0x3dfbf979	0.123034425
224	0x3bf3c7f0	0.007439606
225	0xbb6b6d36	-0.003592325
226	0x3d837a44	0.06419805
227	0x3e0526cd	0.13003083
228	0x3de66820	0.11250329
229	0xbdc3d200	-0.09561539
230	0x3d91cf5a	0.07119627
231	0x3d00ae07	0.031415965
232	0x3ce355d8	0.027750894
233	0xbb959d73	-0.0045658886
234	0xbd83a4c6	-0.064279124
235	0x3e43de71	0.19127823
236	0xbed9fea6	-0.42577094
237	0xbe34bcd0	-0.17650151
238	0x3b8bd1d7	0.004266958
239	0xbb5d976b	-0.0033812176
240	0xbd845502	-0.064615265
241	0x3e6036e4	0.21895939
242	0xbd91f33d	-0.07126472
243	0x3d034fcd	0.032058526
244	0x3e6f9e49	0.23400225
245	0x3bd30e40	0.0064409077
246	0xbd85c322	-0.06531359
247	0x3d4b63aa	0.049655594
248	0x3e267080	0.16253853
249	0x3e58a39f	0.21156166

net.8.bias f4 [10]
0	0x3b943b94	0.004523704
1	0xbf096ed3	-0.5368473
2	0x3dbadb80	0.091238976
3	0x3cb3e9f3	0.021962142
4	0x3ed22f10	0.4105153
5	0x3b8f6e38	0.004377153
6	0xbec4dabf	-0.3844814
7	0x3f2047f9	0.6260982
8	0x3decd530	0.115641
9	0x3e807802	0.2509156
