models/reasoning/reasoning_model_MSELoss_basic_audio.pt (torch, 82263 bytes, 6 tensors)

lstm_layer.weight_ih_l0 f4 [256, 10]
-0.508845 -0.503422 2.4711127 -0.50573564 -0.5044329 -0.5007873 -0.5063879 -0.5017422
-0.5052439 -0.5042599 0.3509027 0.47005793 0.5167682 1.7208195 0.36438027 0.43399182
0.5327179 0.43537784 0.45585197 0.3956998 -0.4629028 -0.40918955 -0.4266274 -0.3974949
-0.36621407 -0.45468977 -0.5260847 -0.43913764 -0.35520878 -0.2514285 -1.8461323 -1.8954098
-1.8018657 -1.8881799 -1.8616813 3.2906134 -1.7807547 -1.7055824 -1.7633479 -1.9137633
-0.33790982 -0.3879657 -0.2781991 -0.027907759 -0.37447333 -0.40377226 -0.4814836 -0.2857088
-0.25268668 -0.29080084 -0.03906543 -0.01885464 -0.061243765 -0.09886443 -0.069978446 -0.0096542025
-0.06701342 -0.0471321 -0.04485948 -0.049673554 0.20850697 0.21048227 0.2045908 0.21544906
0.20149292 0.20913845 0.21103062 0.21793002 4.0459514 0.20675454 2.011103 -0.23849252
-0.19231927 -0.22365789 -0.22227971 -0.23689981 -0.20408162 -0.21425645 -0.21081875 -0.21516772
-1.4395976 -1.4290838 -1.4411074 -1.4267757 -1.4541543 -1.4065418 -1.4198538 1.1149118
-1.4255271 -1.4334912 0.07258708 0.079156324 0.07296132 0.06782662 -0.8344899 0.05440167
0.082402095 0.08891915 0.022174329 0.07727513 -0.20557529 -0.15974152 -0.12799819 -0.19553405
-0.22096586 -0.16854687 -0.1968092 -0.18514785 -0.27574924 -0.16302198 -0.5816738 -1.0091059
-0.6425803 -0.8555165 0.63249576 -0.49933308 -0.45454174 -1.009697 0.06313244 -0.70599014
-0.2010156 -0.22707044 -0.21875826 -0.2228762 -0.18894798 -0.2054008 -1.2195226 -0.19026975
-0.18769798 -0.1934704 -0.3497596 -0.65947485 -0.3428526 0.051203176 -0.32705858 -0.49742
-0.4493912 -0.66052765 -0.72670764 -0.31407902 -0.7769212 -0.802973 -0.8536121 -0.70886934
-0.8845415 -0.8554563 -0.9373365 -0.7992731 0.10334303 -0.8240937 -1.9856951 -2.0184672
-1.8554587 -1.8821216 -1.8762107 -1.9093308 -1.8449062 -1.8940372 -1.8952268 1.7809697
-0.4466787 -0.49639922 -0.48899752 -0.44453657 -0.44646785 -0.45494175 -0.50625 0.28951368
-0.48314425 -0.5186085 1.712572 -0.79362875 -0.73159575 -0.72434586 -0.7295821 -0.73535186
-0.7306145 -0.73546636 -0.7506383 -0.72587 0.18619053 -1.7124649 0.16555436 0.18996541
0.20957854 0.19321474 0.16134492 0.18061496 0.19770521 0.16907291 0.22979385 0.23004434
0.24463452 0.1906959 0.20004037 0.19319138 0.30143657 6.0604477 0.2562465 0.2741418
-0.95974976 -0.99245733 -1.0195712 -0.9569643 -0.99838716 1.7621261 -1.0276289 -0.95399827
-0.9853449 -0.941181 0.14454088 0.15805635 0.14793043 0.16088572 0.18925416 0.1728164
0.16278233 0.13391049 -0.40803382 0.13060631 -0.23499732 -0.20249516 -0.16651222 -0.22183067
-0.21054366 -0.29244187 -0.57470423 -0.035585724 -0.37078872 -0.2999431 -0.3692151 -0.37751627
-0.38076738 -0.36465773 -0.33376616 -0.34596363 -0.4016884 -0.38426918 -0.36213803 -0.34947813
-0.41263023 -0.57140017 -0.4640494 -0.47591266 -0.30162725 -0.18715075 -0.39441243 -0.4841853
-0.17782946 -0.3939375 -0.9188968 1.872182 -0.7901164 -0.936948 -1.0098631 -0.905429
00000000: aa43 02bf 44e0 00bf b626 1e40 e477 01bf
00000010: 8422 01bf 9933 00bf a3a2 01bf 2d72 00bf
00000020: aa57 01bf 2d17 01bf 85a9 b33e 6fab f03e
00000030: ec4a 043f d043 dc3f 0d90 ba3e 2d34 de3e
00000040: 3360 083f d8e9 de3e 6e65 e93e 2a99 ca3e
00000050: 9901 edbe 4b81 d1be e86e dabe 7484 cbbe
00000060: 6980 bbbe 19cd e8be 7dad 06bf a6d6 e0be
00000070: eddd b5be 3dbb 80be 104e ecbf ca9c f2bf
00000080: 89a3 e6bf e1af f1bf 934b eebf 6999 5240
00000090: c5ef e3bf 8650 dabf 62b5 e1bf 32f6 f4bf
000000a0: 8402 adbe 71a3 c6be 1d70 8ebe d09e e4bc
000000b0: f8ba bfbe 3dbb cebe 0585 f6be 6d48 92be
000000c0: 2660 81be d9e3 94be 1303 20bd 0c75 9abc
000000d0: beda 7abd 6f79 cabd dc50 8fbd a92c 1ebc
000000e0: 553e 89bd 970d 41bd 93be 37bd 7f76 4bbd
000000f0: da82 553e aa88 573e 4080 513e ae9e 5c3e
00000100: 2954 4e3e 6428 563e 6918 583e 0c29 5f3e
00000110: 6f78 8140 76b7 533e e9b5 0040 6237 74be
00000120: 58ef 44be 9306 65be 4b9d 63be dd95 72be
00000130: c6fa 50be 0b66 5bbe dfe0 57be ed54 5cbe
00000140: bc44 b8bf 38ec b6bf 3576 b8bf 96a0 b6bf
00000150: ba21 babf 9009 b4bf c5bd b5bf 6eb5 8e3f
00000160: ac77 b6bf a47c b7bf 89a8 943d b61c a23d
00000170: bf6c 953d afe8 8a3d 21a1 55bf 49d4 5e3d
00000180: 6ec2 a83d 3e1b b63d f0a6 b53c 6c42 9e3d
00000190: 5482 52be 4893 23be f511 03be 143a 48be
000001a0: e044 62be 8d97 2cbe 5a88 49be 6697 3dbe
000001b0: 012f 8dbe 3cef 26be 93e8 14bf 622a 81bf
000001c0: 2480 24bf 2103 5bbf 3eeb 213f 96a8 ffbe
000001d0: b2b9 e8be c03d 81bf 954b 813d c5bb 34bf
000001e0: 09d7 4dbe 2785 68be 2a02 60be a939 64be
000001f0: 947b 41be 9654 52be 5119 9cbf 13d6 42be
00000200: e633 40be 1b1d 46be b113 b3be 58d3 28bf
00000210: 608a afbe 6cba 513d 3974 a7be d6ad febe
00000220: 9a16 e6be 5718 29bf 8309 3abf f7ce a0be
00000230: 4fe4 46bf a38f 4dbf 5386 5abf 7678 35bf
00000240: 5071 62bf 2fff 5abf 49f5 6fbf 299d 4cbf
00000250: 83a5 d33d cef7 52bf 422b febf 912e 01c0
00000260: ac7f edbf 5ce9 f0bf ac27 f0bf f464 f4bf
00000270: e325 ecbf d06f f2bf cb96 f2bf d1f6 e33f
00000280: 12b3 e4be 0a28 febe e25d fabe 4c9a e3be
00000290: 6f97 e4be 20ee e8be 9a99 01bf 233b 943e
000002a0: af5e f7be 87c3 04bf 8f35 db3f 412b 4bbf
000002b0: dc49 3bbf bb6e 39bf e4c5 3abf 0540 3cbf
000002c0: 8d09 3bbf 8647 3cbf d529 40bf 9ed2 39bf
000002d0: bba8 3e3e 0d32 dbbf 1587 293e 4b86 423e
000002e0: c29b 563e 16da 453e 9a37 253e 21f3 383e
000002f0: 3c73 4a3e 7321 2d3e 144f 6b3e be90 6b3e
00000300: 7981 7a3e c945 433e 62d7 4c3e f6d3 453e
00000310: e555 9a3e 30ef c140 be32 833e 505c 8c3e
00000320: 29b2 75bf af11 7ebf 4f81 82bf 9dfb 74bf
00000330: 4d96 7fbf 598d e13f 5889 83bf 3b39 74bf
00000340: 903f 7cbf 3df1 70bf 8602 143e 86d9 213e
00000350: 137b 173e 3abf 243e d8cb 413e c8f6 303e
00000360: 69b0 263e d51f 093e cfe9 d0be a9bd 053e
00000370: 23a3 70be e45a 4fbe 2e82 2abe 9427 63be
00000380: c298 57be f1ba 95be d11f 13bf 56c2 11bd
00000390: 05d8 bdbe 2492 99be c309 bdbe d049 c1be
000003a0: f1f3 c2be 6bb4 babe 66e3 aabe 2522 b1be
000003b0: 1aaa cdbe eebe c4be 286a b9be ccee b2be
000003c0: 4544 d3be 4847 12bf e297 edbe d3aa f3be
000003d0: e36e 9abe 72a4 3fbe 6df0 c9be 23e7 f7be
000003e0: ed18 36be 2db2 c9be d23c 6bbf a9a3 ef3f
000003f0: 1245 4abf d3db 6fbf 3243 81bf 32ca 67bf

lstm_layer.weight_hh_l0 f4 [256, 64]
4.666903 0.003094925 0.2470282 -0.014815624 0.13934977 0.2922057 -0.0066769724 0.0059531424
0.006840058 0.020615876 -0.17268872 -0.24974298 0.06444251 -0.3779854 0.0296468 0.15258871
-0.010045742 0.0010802337 -0.0010804416 -0.015315441 0.034198783 0.014982547 -0.04129564 -0.045459896
-0.26691476 0.02193227 0.017496537 -0.10278843 -0.6574747 0.12222462 0.00036040138 0.056990452
0.017863143 -0.17663762 0.15769541 0.01092137 -0.62914723 0.2448682 0.0003336386 0.0025990615
0.17882282 0.17345405 -0.15175743 0.9785645 -0.005612631 0.12796101 0.30784425 0.021370199
-0.28980845 0.0030864459 -0.0014702955 0.058740664 -0.15289131 0.63089263 0.09564934 -2.2567842
0.0032024041 0.052052446 -0.1792544 0.027439175 -0.036265098 0.001920477 -0.01303284 0.00010263226
-0.020359907 -2.3452585 0.5593269 0.29876325 -0.59937865 -0.89197004 -0.061880548 -0.06950515
-0.06911128 -0.00017157318 -0.18501322 -0.39855078 -0.039186336 0.6945347 -0.83956265 -0.5799583
-0.15037814 -0.039039824 -0.11712259 0.020634364 -0.30601886 0.26526207 0.39161476 -0.4474209
1.1499592 -0.41251466 0.63427275 -0.36088702 -0.62532187 -0.8606994 0.024954287 0.35505888
0.2896823 -0.21196358 -0.07212792 0.023732152 0.89906466 1.4401861 -1.3902322 -0.03205232
-0.49549487 -1.2892652 0.48776516 0.5069802 0.646635 0.21099274 -0.6696098 -0.32231897
-0.6141531 0.014597631 0.0532354 0.90588 -0.66522694 -0.8835512 0.7830781 0.40287295
-0.008767576 -0.17372091 0.63644344 0.0155462865 -0.36341178 -0.03520424 -0.46489894 0.031441078
-0.014934281 -0.024628595 -0.083971106 -0.1284926 0.03128549 0.2507355 0.0009087423 0.040058322
0.024460485 0.043967925 0.09227024 -0.013560545 -0.03221035 -0.36775866 0.2163963 -0.0011528691
0.16297054 -0.035761107 -0.08152402 -0.06049909 0.2068615 -0.1098861 -0.11633915 0.052789178
-0.37250605 0.3573277 -0.18370672 -0.07236776 0.19456092 0.048358012 -0.02162849 0.008410527
-0.139757 -0.039024506 -0.09776193 0.079375535 -0.011512836 0.14725412 -0.0014679149 0.13663007
0.19640137 0.6621788 0.018978115 -0.09280718 -0.084616296 -0.31683344 0.16736884 0.30971825
0.044362288 0.2397351 0.048157997 0.05986863 0.07682905 0.16609198 -0.22757715 0.023313845
0.11215185 0.20357546 -0.04120029 0.12026619 0.11354985 -0.06169817 -0.4093034 0.07353253
0.0022832528 -0.004874399 0.11117154 -0.1407194 0.17299768 0.18794358 -0.024967786 0.011409115
-0.026662683 -0.012738693 0.30624697 -0.07018614 -0.12965597 -0.13704984 0.24373522 0.006276792
0.09248608 -0.004501138 0.0054957406 0.000896925 0.77546984 0.011186575 -0.16728367 -1.4860363
-0.1937143 -0.025453871 0.005103151 0.13370909 0.10979942 0.07895906 0.0006059236 0.16957712
0.3336825 -0.031109804 -0.34753335 0.10173975 -0.1914854 0.56711566 0.0002640716 -0.0054093096
0.07857985 0.34441477 -0.098549426 -0.044804346 0.096187346 -0.028599128 0.055555508 -0.7569494
0.5373038 0.0014822131 -1.2517049 -0.14261574 0.10732962 0.30769402 0.065948695 -0.0003640079
0.00038697338 0.014175427 0.091436185 1.1546348 -0.059291616 -0.0015448686 -0.04487413 -0.007948421
00000000: 4557 9540 3ad4 4a3b f6f4 7c3e 3bbd 72bc
00000010: b5b1 0e3e fc9b 953e 81ca dabb 9412 c33b
00000020: 9122 e03b a0e2 a83c 50d5 30be a0bc 7fbe
00000030: 6ffa 833d 4d87 c1be d9dd f23c 3740 1c3e
00000040: e596 24bc a196 8d3a 9b9d 8dba 9eed 7abc
00000050: 0614 0c3d 5b79 753c 9e25 29bd 2834 3abd
00000060: 0da9 88be 4eab b33c e654 8f3c be82 d2bd
00000070: 4350 28bf e750 fa3d 41f4 bc39 d26e 693d
00000080: ba55 923c 7ee0 34be e87a 213e 8cef 323c
00000090: cb0f 21bf bbbe 7a3e 37ec ae39 0455 2a3b
000000a0: 541d 373e f09d 313e 4d66 1bbe 3483 7a3f
000000b0: 29ea b7bb 3608 033e c39d 9d3e 8e10 af3c
000000c0: c661 94be f845 4a3b eeb6 c0ba 0d9a 703d
000000d0: 8a8f 1cbe 2e82 213f cde3 c33d 276f 10c0
000000e0: 6ddf 513b f234 553d 778e 37be 1fc8 e03c
000000f0: b68a 14bd 84b8 fb3a b187 55bc 463c d738
00000100: d2c9 a6bc b718 16c0 0c30 0f3f 7ff7 983e
00000110: e170 19bf 2658 64bf 7576 7dbd b758 8ebd
00000120: 378a 8dbd 53e8 33b9 1b74 3dbe d90e ccbe
00000130: da81 20bd 07cd 313f 94ed 56bf 2678 14bf
00000140: bafc 19be 39e8 1fbd f8dd efbd 6609 a93c
00000150: 81ae 9cbe 6ed0 873e bb81 c83e 5a14 e5be
00000160: dd31 933f 1f35 d3be b35f 223f 2fc6 b8be
00000170: 1815 20bf cc56 5cbf ef6c cc3c 47ca b53e
00000180: 3d51 943e fb0c 59be ceb7 93bd ee69 c23c
00000190: 1a29 663f 0558 b83f 21f3 b1bf 4b49 03bd
000001a0: 81b1 fdbe a406 a5bf 5bbc f93e 74c9 013f
000001b0: df89 253f 7b0e 583e 8c6b 2bbf fe06 a5be
000001c0: 2339 1dbf e72a 6f3c 5d0d 5a3d c0e7 673f
000001d0: 504c 2abf 6930 62bf ce77 483f 5d45 ce3e
000001e0: e1a5 0fbc e5e3 31be f5ed 223f dab5 7e3c
000001f0: 1c11 babe 5232 10bd 3c07 eebe 5cc8 003d
00000200: eaae 74bc e8c1 c9bc 0bf9 abbd 9093 03be
00000210: 3725 003d 6760 803e aa38 6e3a 3214 243d
00000220: 5b61 c83c b617 343d 2ef8 bc3d 0c2d 5ebc
00000230: 00ef 03bd dd4a bcbe fe96 5d3e de1b 97ba
00000240: c0e1 263e 3d7a 12bd 11f6 a6bd e5cd 77bd
00000250: 80d3 533e f70b e1bd 3843 eebd 7739 583d
00000260: 1db9 bebe a8f3 b63e 9d1d 3cbe 8c35 94bd
00000270: fa3a 473e 0d13 463d 3b2e b1bc 4fcc 093c
00000280: 761c 0fbe 29d8 1fbd 6837 c8bd a48f a23d
00000290: 56a0 3cbc c9c9 163e 0d67 c0ba c1e8 0b3e
000002a0: 711d 493e 8d84 293f fe77 9b3c b111 bebd
000002b0: 4f4b adbd fe37 a2be bd62 2b3e 6493 9e3e
000002c0: 3bb5 353d 1e7d 753e 5241 453d cf38 753d
000002d0: 8d58 9d3d 0414 2a3e fc09 69be adfc be3c
000002e0: deaf e53d 1676 503e a3c1 28bd 1f4e f63d
000002f0: d38c e83d 38b7 7cbd 3790 d1be 3998 963d
00000300: a0a2 153b 6cb9 9fbb e8ad e33d bf18 10be
00000310: 4e26 313e 4874 403e 3e89 ccbc 4ced 3a3c
00000320: b36b dabc f3b5 50bc 67cc 9c3e c0bd 8fbd
00000330: 89c4 04be cb56 0cbe ba95 793e 8cad cd3b
00000340: 5869 bd3d 487e 93bb 9d15 b43b 9e1f 6b3a
00000350: 3185 463f e547 373c 694c 2bbe 7036 bebf
00000360: 0b5d 46be a384 d0bc 5538 a73b 09eb 083e
00000370: 85de e03d 4ab5 a13d d8d6 1e3a a0a5 2d3e
00000380: 6fd8 aa3e fdd9 febc e4ef b1be ee5c d03d
00000390: c014 44be 7e2e 113f 1773 8a39 9440 b1bb
000003a0: 79ee a03d 2257 b03e 48d4 c9bd c384 37bd
000003b0: dffd c43d b848 eabc 2c8e 633d 70c7 41bf
000003c0: be8c 093f d246 c23a de37 a0bf dc09 12be
000003d0: a2cf db3d 128a 9d3e 1c10 873d 50d8 beb9
000003e0: b0e2 ca39 0d40 683c e542 bb3d 13cb 933f
000003f0: c4db 72bd 307d caba f0cd 37bd 183a 02bc

lstm_layer.bias_ih_l0 f4 [256]
0.2068106 1.2648399 -1.2924712 -0.6846194 -1.0889348 -0.2167113 1.1970936 0.7233049
-0.18625201 -0.017191943 -0.69281965 -0.525719 -1.2835839 -1.0901198 -0.98047096 -0.23205355
-1.4223615 -0.014212814 -0.70646745 1.0367534 -0.2517317 -0.39421186 -1.2802205 -1.0260475
-1.155265 -0.13953622 0.2810847 -0.76511383 0.56230855 -0.97650385 0.6026042 -1.0589697
-0.6626739 -0.41372395 -1.0977801 0.32375476 -1.185011 -0.25838307 0.5801198 0.03877292
-1.1569114 -0.13023111 -1.0960855 0.73072124 -1.0628836e-06 -0.44231433 -1.379825 -0.40789175
-1.0897204 0.62891746 -0.11265371 -1.1279099 -1.0494478 -1.0163952 -1.0777715 -1.0476494
1.2719997 0.39793807 -0.05156879 -0.77922136 -0.67535967 -0.60479236 -1.0186361 1.1070514
0.3976505 -0.38475555 -0.948472 -2.351017 -0.71314067 -0.28720465 -0.15888453 0.104604416
-0.8832833 0.18661867 -1.1504258 -1.0586728 -0.00042415474 -0.70952797 -0.98918116 -0.9075666
-0.60349995 -1.2301366 -0.5153489 0.93577766 -1.6271533 -0.5673332 -0.5678408 -0.44561034
-0.60968214 -1.0057333 -1.0288392 -1.3265116 0.30268517 -0.61471945 0.600552 -0.91062707
-0.1894454 -1.7098897 -0.93402797 -1.0688845 -1.2809402 -0.6856661 0.64036846 -0.13946034
-1.2343844 -0.3046518 -0.10143733 0.25430787 -1.5405066 -1.6266155 -0.6304336 -1.5352646
-1.3435609 1.0101011 -1.5538814 -1.4348322 -0.63473094 -0.52828336 -1.2727022 -1.1408354
1.4008282 0.052787762 -0.7774481 -0.57406735 -0.502627 -0.27743545 -0.5603927 1.4421691
-0.09738966 -0.51558065 -0.015549833 0.15178315 0.03359976 0.2021783 -0.45301956 -0.3238167
-0.13105258 -0.13040982 -0.051782716 -0.17338158 0.046397645 -0.058509436 0.045007333 -0.00843928
-0.028769571 -0.109351344 -0.073204495 0.4048026 -0.023534548 -0.030798893 0.057642523 0.10463727
0.047457192 -0.13199268 0.09721774 -0.049712837 0.5269019 0.19277553 -0.14927016 -0.010871647
0.1401169 0.14721526 0.008208597 0.104504615 0.027932275 0.11337372 -0.41440544 -0.37272525
-0.07281412 0.1491397 -0.17659548 -0.54677147 0.1137805 -0.077796996 0.06677958 -0.093326226
0.09797426 0.3733072 0.11352905 0.008824809 -0.07248259 0.0965104 -0.05636376 -0.08978123
-0.55905193 -0.060686667 -0.037476152 -0.033255145 -0.014758737 -0.12006773 -0.1558721 0.36980304
-1.3824736 -0.84381616 -1.3722408 -0.23254964 -1.2894509 0.0032805072 -0.79043984 -0.8882378
-0.14834681 -1.3937967 -0.78654414 -0.69737643 -1.0064802 -1.1085888 -0.92534083 -0.25151744
-1.146087 -0.3734944 -1.1336211 -0.6747804 -0.52401894 -1.4736419 -1.104558 -1.3654152
-1.1553726 -0.18806995 -0.5951769 -1.1753291 -0.13332455 -1.1050907 -2.0339994 -1.1141558
-0.7599924 -0.15198791 -1.4929924 -0.5744783 -1.2123734 -0.47951764 -1.4825877 -1.2902343
-1.1466566 -1.5907468 -1.1791364 0.41902688 -0.32812697 -0.07444881 -1.203453 -0.3665546
-1.2391108 -0.6205626 -0.41105506 -1.1129037 -0.956382 -1.299573 -1.466114 -1.0719479
-0.62072915 -0.10516657 -0.5685611 -0.9269231 -1.395217 -1.5383509 -1.0526807 -0.44174513
00000000: 28c6 533e 46e6 a13f b26f a5bf 3843 2fbf
00000010: 3762 8bbf 91e9 5dbe 5d3a 993f 832a 393f
00000020: d9b8 3ebe 1ed6 8cbc a15c 31bf 8595 06bf
00000030: 7a4c a4bf 0c89 8bbf 2500 7bbf 729f 6dbe
00000040: f10f b6bf dddc 68bc 0ddb 34bf 56b4 843f
00000050: fae2 80be 23d6 c9be 44de a3bf 8655 83bf
00000060: b9df 93bf 95e2 0ebe 55ea 8f3e 80de 43bf
00000070: 74f3 0f3f 28fc 79bf 4544 1a3f 528c 87bf
00000080: ffa4 29bf a0d3 d3be 0f84 8cbf 2fc3 a53e
00000090: 71ae 97bf c94a 84be bb82 143f 5ad0 1e3d
000000a0: ac15 94bf 4e5b 05be 884c 8cbf 8c10 3b3f
000000b0: 67a8 8eb5 0677 e2be 1b9e b0bf 30d7 d0be
000000c0: f57b 8bbf bc00 213f fdb6 e6bd 5a5f 90bf
000000d0: 4e54 86bf 3d19 82bf 6bf4 89bf 6019 86bf
000000e0: e3d0 a23f 8abe cb3e cc39 53bd 0d7b 47bf
000000f0: 5fe4 2cbf acd3 1abf ab62 82bf dcb3 8d3f
00000100: d998 cb3e aefe c4be 10cf 72bf 1077 16c0
00000110: 6390 36bf 7d0c 93be a0b2 22be d73a d63d
00000120: db1e 62bf f718 3f3e 2741 93bf 9782 87bf
00000130: 1661 deb9 a0a3 35bf fa3a 7dbf 4956 68bf
00000140: f97e 1abf 1e75 9dbf e8ed 03bf 208f 6f3f
00000150: 8f46 d0bf c03c 11bf 045e 11bf 0a27 e4be
00000160: 2114 1cbf debb 80bf 01b1 83bf 22cb a9bf
00000170: 8df9 9a3e 415e 1dbf c7bd 193f db1e 69bf
00000180: fafd 41be aadd dabf 751c 6fbf 35d1 88bf
00000190: d9f5 a3bf d087 2fbf 30ef 233f b1ce 0ebe
000001a0: 4f00 9ebf 52fb 9bbe 60be cfbd a434 823e
000001b0: 522f c5bf f034 d0bf 1964 21bf 8d83 c4bf
000001c0: cef9 abbf fe4a 813f 96e5 c6bf 95a8 b7bf
000001d0: ba7d 22bf 943d 07bf e8e7 a2bf e506 92bf
000001e0: 574e b33f fb37 583d d706 47bf 14f6 12bf
000001f0: 2aac 00bf 050c 8ebe e575 0fbf ff98 b83f
00000200: 3b74 c7bd 18fd 03bf bac4 7ebc 0b6d 1b3e
00000210: e79f 093d d407 4f3e 2ef2 e7be 4dcb a5be
00000220: a632 06be 278a 05be 1d1a 54bd f18a 31be
00000230: 750b 3e3d 97a7 6fbd 9c59 383d e844 0abc
00000240: 2aae ebbc 99f3 dfbd 3dec 95bd 4942 cf3e
00000250: 86cb c0bc f64d fcbc 911a 6c3d 114c d63d
00000260: 7962 423d 1729 07be 181a c73d b09f 4bbd
00000270: 0be3 063f f366 453e 47da 18be fe1e 32bc
00000280: ce7a 0f3e 99bf 163e 5a7d 063c 8406 d63d
00000290: 3ad2 e43c 7b30 e83d f32c d4be d8d5 bebe
000002a0: 921f 95bd 14b8 183e 72d5 34be 37f9 0bbf
000002b0: c005 e93d 0854 9fbd bcc3 883d d221 bfbd
000002c0: bba6 c83d 1f22 bf3e eb81 e83d ef95 103c
000002d0: c171 94bd 3fa7 c53d b0dd 66bd 39df b7bd
000002e0: 071e 0fbf 9592 78bd 9880 19bd 8c36 08bd
000002f0: a1ce 71bc 12e6 f5bd f09c 1fbe d356 bd3e
00000300: e5f4 b0bf 5604 58bf 96a5 afbf 7e21 6ebe
00000310: ba0c a5bf c7fd 563b 445a 4abf 8d63 63bf
00000320: 3ae8 17be ee67 b2bf f55a 49bf 4387 32bf
00000330: 58d4 80bf 3de6 8dbf 23e3 6cbf e5c6 80be
00000340: fbb2 92bf a83a bfbe 7f1a 91bf 69be 2cbf
00000350: 1b26 06bf 4ca0 bcbf 2862 8dbf edc5 aebf
00000360: 40e3 93bf 6995 40be 835d 18bf 2f71 96bf
00000370: 3b86 08be 9d73 8dbf 0c2d 02c0 a89c 8ebf
00000380: dd8e 42bf b8a2 1bbe 601a bfbf 0311 13bf
00000390: 0d2f 9bbf 5683 f5be 6fc5 bdbf 6626 a5bf
000003a0: a5c5 92bf 979d cbbf f1ed 96bf b18a d63e
000003b0: 4200 a8be 9e78 98bd bf0a 9abf 0bad bbbe
000003c0: 2f9b 9ebf 31dd 1ebf cf75 d2be a173 8ebf
000003d0: 73d5 74bf 6858 a6bf a0a9 bbbf 9735 89bf
000003e0: 1be8 1ebf 9261 d7bd 388d 11bf d54a 6dbf
000003f0: 7896 b2bf afe8 c4bf 3ebe 86bf 6b2c e2be

lstm_layer.bias_hh_l0 f4 [256]
0.08418242 1.1466141 -1.2079504 -0.74256724 -1.1360617 -0.15165067 1.3169948 0.8213711
-0.13543084 -0.17931116 -0.6009657 -0.47443545 -1.1157855 -1.132874 -1.1021035 -0.34961668
-1.2789696 0.06536619 -0.80477214 0.99859124 -0.30467808 -0.38873938 -1.1615812 -1.1383927
-1.0945314 -0.29448473 0.3290131 -0.83845085 0.7225493 -1.0483938 0.51707655 -1.183315
-0.7463334 -0.545011 -1.139061 0.36915812 -1.0523474 -0.39860278 0.5845435 0.09307612
-1.1262182 -0.1908061 -0.97746265 0.73679245 0.054499887 -0.19548021 -1.3084921 -0.34705997
-1.0033696 0.7043043 -0.22263078 -1.0093604 -1.0838587 -1.232822 -1.0560697 -1.0318505
1.475791 0.3823947 -0.009162088 -0.7335142 -0.79738605 -0.55274266 -0.9564703 1.2949519
0.35239014 -0.27553096 -0.8187505 -2.2421257 -0.655685 -0.18645811 -0.18324487 0.04667963
-0.9067063 0.28412947 -1.0493636 -1.1104709 -0.15954211 -0.6729289 -1.041191 -0.9913341
-0.4350193 -1.0607796 -0.7413883 1.1228323 -1.5128448 -0.6215521 -0.4456037 -0.46667188
-0.4909983 -1.1148279 -1.0067668 -1.4703484 0.13809456 -0.5816169 0.6919598 -0.7964232
-0.22789295 -1.8295856 -0.80777127 -0.8829391 -1.2906569 -0.5090265 0.65048426 -0.23798649
-1.172586 -0.28291646 0.07362163 0.14591807 -1.7177334 -1.6900339 -0.62707365 -1.6091187
-1.0969071 0.78921515 -1.5892712 -1.4434956 -0.5985563 -0.45940712 -1.2521535 -1.2341152
1.6258489 -0.043368958 -0.8579893 -0.4557775 -0.47824556 -0.3020642 -0.5443079 1.4481786
0.034459796 -0.4812299 -0.030469965 0.10867367 -0.00073159655 0.17932247 -0.40061066 -0.2349394
-0.022893831 -0.06285181 -0.0011091096 -0.083868116 0.08443178 -0.05615282 0.017107794 0.018004779
0.01658902 -0.21844833 -0.053661224 0.39368108 -0.046080273 0.1958277 0.1562505 0.017472485
-0.13836668 -0.14489311 0.114401706 0.14425792 0.6674794 0.010257886 -0.0662641 0.09306792
0.105303325 0.16364676 -0.09913975 0.1058486 0.0645021 0.09491172 -0.25663796 -0.37424013
0.017660392 0.31131393 -0.1707302 -0.39463198 0.04192931 -0.14852335 -0.027933182 -0.020141203
0.023669368 0.48914155 0.01729295 0.0031767476 -0.030250855 -0.027055383 -0.14037693 -0.08876863
-0.41909304 -0.2492955 0.002866676 -0.0978575 -0.020016497 -0.16726789 -0.1536902 0.23694114
-1.3949347 -0.7664669 -1.262804 -0.21113698 -1.2785786 -0.02056558 -0.78898704 -0.7237257
0.031569075 -1.5268135 -0.74286103 -0.62746143 -1.123551 -1.2096252 -0.90717655 -0.3263683
-1.0693585 -0.37524322 -1.1105107 -0.71066254 -0.43044478 -1.3985393 -1.1055914 -1.2012722
-1.06939 -0.046824764 -0.49674124 -1.114024 -0.003476817 -1.2376074 -2.1049936 -1.0716288
-0.7433775 -0.16760151 -1.4435993 -0.7175729 -1.2963727 -0.43758747 -1.6513529 -1.1740712
-1.2553083 -1.6222891 -1.168722 0.20351413 -0.14646566 -0.13742039 -1.3038626 -0.40286317
-1.3015254 -0.6145597 -0.5205631 -1.1392965 -1.161678 -1.1036353 -1.4778866 -1.1191313
-0.65014046 -0.14252509 -0.51731664 -0.9162208 -1.423002 -1.6760411 -1.0037091 -0.4369513
00000000: d567 ac3d 40c4 923f 1e9e 9abf e318 3ebf
00000010: 786a 91bf 504a 1bbe 4993 a83f 6045 523f
00000020: 62ae 0abe 589d 37be e3d8 19bf 34e9 f2be
00000030: 0fd2 8ebf 0402 91bf ba11 8dbf f500 b3be
00000040: 47b5 a3bf b6de 853d 8c05 4ebf ada3 7f3f
00000050: c4fe 9bbe d908 c7be b1ae 94bf dab6 91bf
00000060: 9b19 8cbf b4c6 96be 6874 a83e b7a4 56bf
00000070: fef8 383f c531 86bf 215f 043f de76 97bf
00000080: b50f 3fbf d785 0bbf c0cc 91bf 4b02 bd3e
00000090: 52b3 86bf aa15 ccbe a5a4 153f b19e be3d
000000a0: eb27 90bf ad62 43be fe3a 7abf 6e9e 3c3f
000000b0: 463b 5f3d f72b 48be ab7c a7bf d8b1 b1be
000000c0: 6a6e 80bf 494d 343f 53f9 63be b932 81bf
000000d0: e2bb 8abf 1ccd 9dbf 4b2d 87bf ad13 84bf
000000e0: b8e6 bc3f 3dc9 c33e 951c 16bc 96c7 3bbf
000000f0: 7e21 4cbf 8b80 0dbf 3ddb 74bf fcc0 a53f
00000100: 7b6c b43e 6512 8dbe a299 51bf fd7e 0fc0
00000110: f9da 27bf e0ee 3ebe 8ba4 3bbe 2433 3f3d
00000120: e71d 68bf 6b79 913e 8c51 86bf e923 8ebf
00000130: 025f 23be 1245 2cbf bf45 85bf 12c8 7dbf
00000140: daba debe a0c7 87bf a0cb 3dbf f8b8 8f3f
00000150: e6a4 c1bf 0a1e 1fbf 2b26 e4be 9eef eebe
00000160: 2164 fbbe aeb2 8ebf bcdd 80bf 6034 bcbf
00000170: a968 0d3e d8e4 14bf 4724 313f 64e2 4bbf
00000180: c55c 69be dc2f eabf 19ca 4ebf 4c08 62bf
00000190: 3f34 a5bf 904f 02bf 2386 263f bbb2 73be
000001a0: 4c17 96bf 6dda 90be f0c6 963d 8c6b 153e
000001b0: b0de dbbf 0853 d8bf e687 20bf 9af7 cdbf
000001c0: 7467 8cbf 010a 4a3f 3d6d cbbf 77c4 b8bf
000001d0: fc3a 19bf 6937 ebbe 9146 a0bf 7df7 9dbf
000001e0: d11b d03f a6a3 31bd 30a5 5bbf ab5b e9be
000001f0: 9adc f4be 29a8 9abe c357 0bbf eb5d b93f
00000200: b725 0d3d c463 f6be 269c f9bc 4d90 de3d
00000210: 9dc8 3fba 4fa0 373e d71c cdbe f493 70be
00000220: d88b bbbc 73b8 80bd 8b5f 91ba 0cc3 abbd
00000230: 92ea ac3d 8000 66bd a525 8c3c c27e 933c
00000240: b2e5 873c ebb0 5fbe dfcb 5bbd 9190 c93e
00000250: abbe 3cbd 0e87 483e 2200 203e 7522 8f3c
00000260: ffaf 0dbe dc5e 14be 714b ea3d 59b8 133e
00000270: eedf 2a3f b110 283c 79b5 87bd 659a be3d
00000280: 45a9 d73d 0493 273e c809 cbbd 27c7 d83d
00000290: ad19 843d 1361 c23d 0d66 83be 679c bfbe
000002a0: 87ac 903c 8a64 9f3e e6d3 2ebe 340d cabe
000002b0: 11be 2b3d 8116 18be 21d4 e4bc 2aff a4bc
000002c0: 43e6 c13c c370 fa3e f2a9 8d3c fb30 503b
000002d0: a4d0 f7bc 40a3 ddbc f8be 0fbe 54cc b5bd
000002e0: 5d93 d6be 5247 7fbe d8de 3b3b 8369 c8bd
000002f0: a3f9 a3bc 4648 2bbe f760 1dbe b3a0 723e
00000300: 388d b2bf 2d37 44bf 90a3 a1bf 4b34 58be
00000310: 77a8 a3bf 2679 a8bc 0efb 49bf 1646 39bf
00000320: 934e 013d a06e c3bf 242c 3ebf 50a1 20bf
00000330: 85d0 8fbf 00d5 9abf b93c 68bf bf19 a7be
00000340: bde0 88bf e11f c0be 3725 8ebf fbed 35bf
00000350: 4263 dcbe 5603 b3bf 0584 8dbf 4ac3 99bf
00000360: c6e1 88bf 53cb 3fbd de54 febe 5798 8ebf
00000370: 4fdb 63bb eb69 9ebf 37b8 06c0 222b 89bf
00000380: fd4d 3ebf bb9f 2bbe ddc7 b8bf dcb2 37bf
00000390: 8aef a5bf 770b e0be 885f d3bf f747 96bf
000003a0: f1ad a0bf 2ba7 cfbf af98 95bf 0266 503e
000003b0: 18fb 15be eeb7 0cbe f8e4 a6bf 1544 cebe
000003c0: 6298 a6bf c953 1dbf a043 05bf 78d4 91bf
000003d0: ddb1 94bf ec43 8dbf 632b bdbf b23f 8fbf
000003e0: 9b6f 26bf 19f2 11be dd6e 04bf 728d 6abf
000003f0: ee24 b6bf 8488 d6bf 8a79 80bf 15b8 dfbe

out_layer.weight f4 [10, 64]
0.022958543 0.00010435019 -0.009012532 0.00056692347 -0.010649083 -0.0013724568 2.625617e-05 1.0052923
-0.006847692 0.00044842713 -0.0017192323 -0.017520953 -0.0003950466 -0.022469692 -0.04298904 -0.00084129185
0.026333554 0.93678725 -0.003983681 -0.00014003218 -0.009263238 0.003071554 -0.0031988197 0.022023544
-0.009778863 -0.0072383764 0.008199369 0.105293535 -0.0011940817 0.05123484 1.1770573 0.050301492
-0.00034721714 -0.008482475 0.024021605 0.0021844134 -0.07396236 -6.562479e-05 -0.00292018 0.0027992656
-0.08178578 -0.0017198414 -0.0022139181 0.0015944658 0.012602582 -0.0045391712 -0.021730958 0.008676907
0.2829752 5.1595445e-05 -0.0001256099 0.0772256 0.0014910155 0.0035803549 0.00043544278 0.2367561
-7.488162e-05 -0.0012680974 0.010813412 0.0006851129 0.0082873115 0.002802268 -0.0034312522 -9.320661e-05
0.026730668 7.315928e-05 0.10241638 0.00097192096 0.02740726 0.00039914972 -3.7473714e-05 7.4545205e-05
-0.012139158 -0.0013446918 -0.001778914 0.09165287 0.0020051205 -0.15066823 -0.017135246 -0.0013391471
0.041721758 -0.018038621 1.2026007 3.319814e-05 -0.016821364 0.0076146014 0.0057313493 -0.003084206
-0.049728435 0.92259806 0.006388779 0.18450363 -0.0006676022 0.18057862 6.185508e-05 0.1477272
-0.0031738025 -0.009907951 0.028079536 0.001871929 -0.13562223 0.0017459991 -0.007729192 0.0053503336
-0.43454918 -0.0861644 -0.0002541459 0.0007617643 0.032690614 -0.06628399 -0.020900497 0.016414464
-0.18829772 -0.7443487 -0.0012196038 0.33389696 -0.27792442 -0.22592527 0.0018054306 0.2788125
1.4335693e-05 -0.0008874294 0.016724974 -0.021834893 0.010993905 -0.002614352 -0.011357671 0.00012930662
0.06675623 -5.5605164e-05 0.016405502 -0.00030907372 -0.072675325 -0.0012729929 -1.8209423e-05 -7.543721e-05
0.004446036 -0.0006823201 -0.0006569711 -0.019839494 0.00033473774 0.0458502 0.019606395 0.0006433676
0.0016379193 0.0047657713 0.0005622862 7.521594e-05 0.005497108 -0.0046312707 -0.009931677 -0.023665102
0.07322984 0.005261627 -0.0033857734 -0.07569927 0.0013056266 -0.03167939 -0.0002200517 -0.03066086
-0.0019293327 1.3873134 -0.0032178161 -0.0019092888 -0.018505313 0.0017747215 0.0025351425 -0.0024715485
0.09273971 0.0026574093 0.0010517269 0.00118888 -0.0069397353 0.013891047 -0.023636186 -0.0044728243
-0.2571154 -7.0058036e-06 0.00044988267 -0.046794154 0.004384682 0.020119738 0.0013092266 0.22932568
5.7002642e-05 0.00096040976 -0.0073984205 -0.0061899936 0.0012831399 -0.00060193724 0.012577995 -5.026408e-05
0.0335345 0.9888479 0.17428641 0.0008546604 -0.33448693 0.0017242843 9.244029e-05 2.3989158e-05
-0.013930504 0.00037992108 -0.0026718685 0.004518679 -0.0014402847 0.271662 -0.0663871 -0.0020070323
0.044525996 -0.024210915 0.00037113807 -7.974116e-05 -0.017986087 0.019589305 -0.0035564802 0.029888118
-0.10775353 -0.01871075 0.017587112 0.21595027 0.00016349908 0.31549037 -0.0047263284 0.11147728
0.0050487965 -0.012538703 0.14371689 0.0035541418 -0.48984462 0.002631706 -0.008953336 0.005632095
-0.49152455 -0.009407226 0.0016209631 0.0006530785 -1.0874935 -0.033527594 -0.0919692 0.022035856
0.43486708 -2.6733962e-05 0.0008634297 -0.29991233 0.049578756 0.05768026 0.016782533 0.35430452
-6.145232e-05 -0.00011256501 0.027263746 -0.004901272 0.01663212 -0.00037565804 -0.028021475 0.00010376174
00000000: 8e13 bc3c 95d6 da38 4da9 13bc 979d 143a
00000010: 7e79 2ebc 02e4 b3ba b240 dc37 6bad 803f
00000020: 9b62 e0bb df1a eb39 dd57 e1ba 1a88 8fbc
00000030: 421e cfb9 5c12 b8bc 4715 30bd 248a 5cba
00000040: 77b9 d73c 4ad1 6f3f 8a89 82bb 9ad5 12b9
00000050: d6c4 17bc 204c 493b 4aa3 51bb b86a b43c
00000060: 8637 20bc e72f edbb a556 063c 23a4 d73d
00000070: bc82 9cba a0db 513d d0a9 963f f008 4e3d
00000080: b20a b6b9 14fa 0abc f5c8 c43c 6028 0f3b
00000090: 9479 97bd 0aa0 89b8 7e60 3fbb e273 373b
000000a0: 4e7f a7bd 4d6c e1ba 6217 11bb 65fd d03a
000000b0: 0f7b 4e3c 54bd 94bb 1f05 b2bc 9629 0e3c
000000c0: 20e2 903e 3068 5838 27b6 03b9 7528 9e3d
000000d0: 2e6e c33a 63a4 6a3b 244c e439 3170 723e
000000e0: c309 9db8 4a36 a6ba bd2a 313c 2699 333a
000000f0: 81c7 073c 41a6 373b dcde 60bb eb77 c3b8
00000100: 46fa da3c 176d 9938 aebf d13d 83c8 7e3a
00000110: 3185 e03c f844 d139 182d 1db8 2755 9c38
00000120: 52e3 46bc 5f40 b0ba 732a e9ba 80b4 bb3d
00000130: 5768 033b c648 1abe 375f 8cbc 5286 afba
00000140: 6fe4 2a3d bbc5 93bc d2ee 993f 3b3e 0b38
00000150: f5cc 89bc e883 f93b 0bce bb3b 6420 4abb
00000160: 0bb0 4bbd 632f 6c3f f658 d13b 85ee 3c3e
00000170: 0602 2fba 9ae9 383e 31b8 8138 cd45 173e
00000180: 92ff 4fbb f554 22bc 0e07 e63c 845b f53a
00000190: 8ee0 0abe 02da e43a 2945 fdbb da51 af3b
000001a0: 3b7d debe f676 b0bd e33e 85b9 23b1 473a
000001b0: 98e6 053d e7bf 87bd 8537 abbc a077 863c
000001c0: 1ed1 40be a38d 3ebf 1ddb 9fba 8bf4 aa3e
000001d0: 1c4c 8ebe f458 67be 33a4 ec3a 83c0 8e3e
000001e0: 5583 7037 61a2 68ba d002 893c 17df b2bc
000001f0: c81f 343c 8c55 2bbb 8615 3abc 7b96 0739
00000200: 7eb7 883d 9739 69b8 d564 863c 2c0b a2b9
00000210: cdd6 94bd 8eda a6ba 70c0 98b7 0b34 9eb8
00000220: 0eb0 913b badd 32ba 9638 2cba 6f86 a2bc
00000230: bd7f af39 6bcd 3b3d 979d a03c aba7 283a
00000240: 74af d63a 302a 9c3b 6366 133a 40bd 9d38
00000250: 1621 b43b eac1 97bb 79b8 22bc 51dd c1bc
00000260: 87f9 953d ba69 ac3b dae3 5dbb 3808 9bbd
00000270: 8f21 ab3a 40c2 01bd aebd 66b9 7c2c fbbc
00000280: aae1 fcba 7c93 b13f ffe1 52bb 1a41 faba
00000290: 7498 97bc c69d e83a a224 263b b4f9 21bb
000002a0: 51ee bd3d ee27 2e3b 19da 893a 31d4 9b3a
000002b0: b866 e3bb 4697 633c ada0 c1bc c590 92bb
000002c0: a1a4 83be 6513 ebb6 3bde eb39 3aab 3fbd
000002d0: 61ad 8f3b 26d2 a43c 5b9a ab3a 5ad4 6a3e
000002e0: 1f16 6f38 02c4 7b3a 736e f2bb 6ed5 cabb
000002f0: 082f a83a 53cb 1dba ef13 4e3c a5d2 52b8
00000300: 795b 093d 2325 7d3f 2378 323e 4a0b 603a
00000310: df41 abbe 6101 e23a 81dc c138 533c c937
00000320: c53c 64bc 2530 c739 841a 2fbb 6d11 943b
00000330: efc7 bcba 4817 8b3e f6f5 87bd 6a88 03bb
00000340: e460 363d f855 c6bc 4f95 c239 b63a a7b8
00000350: 8f57 93bc c079 a03c d613 69bb edd7 f43c
00000360: e2ad dcbd 4947 99bc d912 903c 1122 5d3e
00000370: f370 2b39 f487 a13e 51df 9abb 334e e43d
00000380: 6070 a53b 226f 4dbc 852a 133e 9bec 683b
00000390: eacc fabe b378 2c3b 03b1 12bc 708d b83b
000003a0: 1ba9 fbbe c420 1abc 7f76 d43a 5b33 2b3a
000003b0: fd32 8bbf 3b54 09bd 595a bcbd 8a84 b43c
000003c0: e6a6 de3e bf42 e0b7 c957 623a 1c8e 99be
000003d0: 1813 4b3d 2342 6c3d 867b 893c 6767 b53e
000003e0: f7df 80b8 e110 ecb8 3858 df3c d99a a0bb
000003f0: 1540 883c f8f3 c4b9 4b8d e5bc a99a d938

out_layer.bias f4 [10]
0.048480626 0.05345532 -0.002441328 0.058172017 0.041997712 0.024534225 0.026372612 0.02168692
0.05234761 0.014288184
00000000: 9f93 463d f7f3 5a3d b0fe 1fbb c845 6e3d
00000010: cb05 2c3d 00fc c83c 600b d83c c5a8 b13c
00000020: 736a 563d fd18 6a3c
